<?xml version="1.0" ?>
<net name="facial-landmarks-35-adas-0002" version="10">
	<layers>
		<layer id="0" name="data" type="Parameter" version="opset1">
			<data element_type="f32" shape="1,3,60,60"/>
			<output>
				<port id="0" precision="FP32">
					<dim>1</dim>
					<dim>3</dim>
					<dim>60</dim>
					<dim>60</dim>
				</port>
			</output>
		</layer>
		<layer id="1" name="data_mul_77447748/copy_const463_const" type="Const" version="opset1">
			<data element_type="f32" offset="0" shape="1,3,1,1" size="12"/>
			<output>
				<port id="1" precision="FP32">
					<dim>1</dim>
					<dim>3</dim>
					<dim>1</dim>
					<dim>1</dim>
				</port>
			</output>
		</layer>
		<layer id="2" name="Mul_/Fused_Mul_" type="Multiply" version="opset1">
			<input>
				<port id="0">
					<dim>1</dim>
					<dim>3</dim>
					<dim>60</dim>
					<dim>60</dim>
				</port>
				<port id="1">
					<dim>1</dim>
					<dim>3</dim>
					<dim>1</dim>
					<dim>1</dim>
				</port>
			</input>
			<output>
				<port id="2" precision="FP32">
					<dim>1</dim>
					<dim>3</dim>
					<dim>60</dim>
					<dim>60</dim>
				</port>
			</output>
		</layer>
		<layer id="3" name="data_add_77457750/copy_const465_const" type="Const" version="opset1">
			<data element_type="f32" offset="12" shape="1,3,1,1" size="12"/>
			<output>
				<port id="1" precision="FP32">
					<dim>1</dim>
					<dim>3</dim>
					<dim>1</dim>
					<dim>1</dim>
				</port>
			</output>
		</layer>
		<layer id="4" name="Add_/Fused_Add_" type="Add" version="opset1">
			<input>
				<port id="0">
					<dim>1</dim>
					<dim>3</dim>
					<dim>60</dim>
					<dim>60</dim>
				</port>
				<port id="1">
					<dim>1</dim>
					<dim>3</dim>
					<dim>1</dim>
					<dim>1</dim>
				</port>
			</input>
			<output>
				<port id="2" precision="FP32">
					<dim>1</dim>
					<dim>3</dim>
					<dim>60</dim>
					<dim>60</dim>
				</port>
			</output>
		</layer>
		<layer id="5" name="Mul1_7082/Fused_Mul_83718373_const467_const" type="Const" version="opset1">
			<data element_type="f32" offset="24" shape="16,3,3,3" size="1728"/>
			<output>
				<port id="1" precision="FP32">
					<dim>16</dim>
					<dim>3</dim>
					<dim>3</dim>
					<dim>3</dim>
				</port>
			</output>
		</layer>
		<layer id="6" name="conv1/WithoutBiases" type="Convolution" version="opset1">
			<data dilations="1,1" output_padding="0,0" pads_begin="1,1" pads_end="1,1" strides="1,1"/>
			<input>
				<port id="0">
					<dim>1</dim>
					<dim>3</dim>
					<dim>60</dim>
					<dim>60</dim>
				</port>
				<port id="1">
					<dim>16</dim>
					<dim>3</dim>
					<dim>3</dim>
					<dim>3</dim>
				</port>
			</input>
			<output>
				<port id="2" precision="FP32">
					<dim>1</dim>
					<dim>16</dim>
					<dim>60</dim>
					<dim>60</dim>
				</port>
			</output>
		</layer>
		<layer id="7" name="data_add_77537758/copy_const469_const" type="Const" version="opset1">
			<data element_type="f32" offset="1752" shape="1,16,1,1" size="64"/>
			<output>
				<port id="1" precision="FP32">
					<dim>1</dim>
					<dim>16</dim>
					<dim>1</dim>
					<dim>1</dim>
				</port>
			</output>
		</layer>
		<layer id="8" name="conv1/Fused_Add_" type="Add" version="opset1">
			<input>
				<port id="0">
					<dim>1</dim>
					<dim>16</dim>
					<dim>60</dim>
					<dim>60</dim>
				</port>
				<port id="1">
					<dim>1</dim>
					<dim>16</dim>
					<dim>1</dim>
					<dim>1</dim>
				</port>
			</input>
			<output>
				<port id="2" precision="FP32">
					<dim>1</dim>
					<dim>16</dim>
					<dim>60</dim>
					<dim>60</dim>
				</port>
			</output>
		</layer>
		<layer id="9" name="relu_conv1" type="ReLU" version="opset1">
			<input>
				<port id="0">
					<dim>1</dim>
					<dim>16</dim>
					<dim>60</dim>
					<dim>60</dim>
				</port>
			</input>
			<output>
				<port id="1" precision="FP32">
					<dim>1</dim>
					<dim>16</dim>
					<dim>60</dim>
					<dim>60</dim>
				</port>
			</output>
		</layer>
		<layer id="10" name="233/Output_0/Data__const472_const" type="Const" version="opset1">
			<data element_type="f32" offset="1816" shape="16,16,3,3" size="9216"/>
			<output>
				<port id="1" precision="FP32">
					<dim>16</dim>
					<dim>16</dim>
					<dim>3</dim>
					<dim>3</dim>
				</port>
			</output>
		</layer>
		<layer id="11" name="pool1/WithoutBiases" type="Convolution" version="opset1">
			<data dilations="1,1" output_padding="0,0" pads_begin="1,1" pads_end="1,1" strides="2,2"/>
			<input>
				<port id="0">
					<dim>1</dim>
					<dim>16</dim>
					<dim>60</dim>
					<dim>60</dim>
				</port>
				<port id="1">
					<dim>16</dim>
					<dim>16</dim>
					<dim>3</dim>
					<dim>3</dim>
				</port>
			</input>
			<output>
				<port id="2" precision="FP32">
					<dim>1</dim>
					<dim>16</dim>
					<dim>30</dim>
					<dim>30</dim>
				</port>
			</output>
		</layer>
		<layer id="12" name="pool1/Dims4593/copy_const474_const" type="Const" version="opset1">
			<data element_type="f32" offset="11032" shape="1,16,1,1" size="64"/>
			<output>
				<port id="1" precision="FP32">
					<dim>1</dim>
					<dim>16</dim>
					<dim>1</dim>
					<dim>1</dim>
				</port>
			</output>
		</layer>
		<layer id="13" name="pool1" type="Add" version="opset1">
			<input>
				<port id="0">
					<dim>1</dim>
					<dim>16</dim>
					<dim>30</dim>
					<dim>30</dim>
				</port>
				<port id="1">
					<dim>1</dim>
					<dim>16</dim>
					<dim>1</dim>
					<dim>1</dim>
				</port>
			</input>
			<output>
				<port id="2" precision="FP32">
					<dim>1</dim>
					<dim>16</dim>
					<dim>30</dim>
					<dim>30</dim>
				</port>
			</output>
		</layer>
		<layer id="14" name="Mul1_7094/Fused_Mul_83758377_const476_const" type="Const" version="opset1">
			<data element_type="f32" offset="11096" shape="32,16,3,3" size="18432"/>
			<output>
				<port id="1" precision="FP32">
					<dim>32</dim>
					<dim>16</dim>
					<dim>3</dim>
					<dim>3</dim>
				</port>
			</output>
		</layer>
		<layer id="15" name="conv2/WithoutBiases" type="Convolution" version="opset1">
			<data dilations="1,1" output_padding="0,0" pads_begin="1,1" pads_end="1,1" strides="1,1"/>
			<input>
				<port id="0">
					<dim>1</dim>
					<dim>16</dim>
					<dim>30</dim>
					<dim>30</dim>
				</port>
				<port id="1">
					<dim>32</dim>
					<dim>16</dim>
					<dim>3</dim>
					<dim>3</dim>
				</port>
			</input>
			<output>
				<port id="2" precision="FP32">
					<dim>1</dim>
					<dim>32</dim>
					<dim>30</dim>
					<dim>30</dim>
				</port>
			</output>
		</layer>
		<layer id="16" name="data_add_77617766/copy_const478_const" type="Const" version="opset1">
			<data element_type="f32" offset="29528" shape="1,32,1,1" size="128"/>
			<output>
				<port id="1" precision="FP32">
					<dim>1</dim>
					<dim>32</dim>
					<dim>1</dim>
					<dim>1</dim>
				</port>
			</output>
		</layer>
		<layer id="17" name="conv2/Fused_Add_" type="Add" version="opset1">
			<input>
				<port id="0">
					<dim>1</dim>
					<dim>32</dim>
					<dim>30</dim>
					<dim>30</dim>
				</port>
				<port id="1">
					<dim>1</dim>
					<dim>32</dim>
					<dim>1</dim>
					<dim>1</dim>
				</port>
			</input>
			<output>
				<port id="2" precision="FP32">
					<dim>1</dim>
					<dim>32</dim>
					<dim>30</dim>
					<dim>30</dim>
				</port>
			</output>
		</layer>
		<layer id="18" name="relu_conv2" type="ReLU" version="opset1">
			<input>
				<port id="0">
					<dim>1</dim>
					<dim>32</dim>
					<dim>30</dim>
					<dim>30</dim>
				</port>
			</input>
			<output>
				<port id="1" precision="FP32">
					<dim>1</dim>
					<dim>32</dim>
					<dim>30</dim>
					<dim>30</dim>
				</port>
			</output>
		</layer>
		<layer id="19" name="30373041_const" type="Const" version="opset1">
			<data element_type="f32" offset="29656" shape="" size="4"/>
			<output>
				<port id="1" precision="FP32"/>
			</output>
		</layer>
		<layer id="20" name="30383042_const" type="Const" version="opset1">
			<data element_type="f32" offset="29660" shape="" size="4"/>
			<output>
				<port id="1" precision="FP32"/>
			</output>
		</layer>
		<layer id="21" name="30393043_const" type="Const" version="opset1">
			<data element_type="f32" offset="29656" shape="" size="4"/>
			<output>
				<port id="1" precision="FP32"/>
			</output>
		</layer>
		<layer id="22" name="30403044_const" type="Const" version="opset1">
			<data element_type="f32" offset="29660" shape="" size="4"/>
			<output>
				<port id="1" precision="FP32"/>
			</output>
		</layer>
		<layer id="23" name="pool2/WithoutBiases/fq_input_0" type="FakeQuantize" version="opset1">
			<data levels="256"/>
			<input>
				<port id="0">
					<dim>1</dim>
					<dim>32</dim>
					<dim>30</dim>
					<dim>30</dim>
				</port>
				<port id="1"/>
				<port id="2"/>
				<port id="3"/>
				<port id="4"/>
			</input>
			<output>
				<port id="5" precision="FP32">
					<dim>1</dim>
					<dim>32</dim>
					<dim>30</dim>
					<dim>30</dim>
				</port>
			</output>
		</layer>
		<layer id="24" name="439/Output_0/Data__const481_const" type="Const" version="opset1">
			<data element_type="f32" offset="29664" shape="16,32,3,3" size="18432"/>
			<output>
				<port id="1" precision="FP32">
					<dim>16</dim>
					<dim>32</dim>
					<dim>3</dim>
					<dim>3</dim>
				</port>
			</output>
		</layer>
		<layer id="25" name="30473051_const" type="Const" version="opset1">
			<data element_type="f32" offset="48096" shape="16,1,1,1" size="64"/>
			<output>
				<port id="1" precision="FP32">
					<dim>16</dim>
					<dim>1</dim>
					<dim>1</dim>
					<dim>1</dim>
				</port>
			</output>
		</layer>
		<layer id="26" name="30483052_const" type="Const" version="opset1">
			<data element_type="f32" offset="48160" shape="16,1,1,1" size="64"/>
			<output>
				<port id="1" precision="FP32">
					<dim>16</dim>
					<dim>1</dim>
					<dim>1</dim>
					<dim>1</dim>
				</port>
			</output>
		</layer>
		<layer id="27" name="30493053_const" type="Const" version="opset1">
			<data element_type="f32" offset="48096" shape="16,1,1,1" size="64"/>
			<output>
				<port id="1" precision="FP32">
					<dim>16</dim>
					<dim>1</dim>
					<dim>1</dim>
					<dim>1</dim>
				</port>
			</output>
		</layer>
		<layer id="28" name="30503054_const" type="Const" version="opset1">
			<data element_type="f32" offset="48160" shape="16,1,1,1" size="64"/>
			<output>
				<port id="1" precision="FP32">
					<dim>16</dim>
					<dim>1</dim>
					<dim>1</dim>
					<dim>1</dim>
				</port>
			</output>
		</layer>
		<layer id="29" name="pool2/WithoutBiases/fq_weights_1" type="FakeQuantize" version="opset1">
			<data levels="255"/>
			<input>
				<port id="0">
					<dim>16</dim>
					<dim>32</dim>
					<dim>3</dim>
					<dim>3</dim>
				</port>
				<port id="1">
					<dim>16</dim>
					<dim>1</dim>
					<dim>1</dim>
					<dim>1</dim>
				</port>
				<port id="2">
					<dim>16</dim>
					<dim>1</dim>
					<dim>1</dim>
					<dim>1</dim>
				</port>
				<port id="3">
					<dim>16</dim>
					<dim>1</dim>
					<dim>1</dim>
					<dim>1</dim>
				</port>
				<port id="4">
					<dim>16</dim>
					<dim>1</dim>
					<dim>1</dim>
					<dim>1</dim>
				</port>
			</input>
			<output>
				<port id="5" precision="FP32">
					<dim>16</dim>
					<dim>32</dim>
					<dim>3</dim>
					<dim>3</dim>
				</port>
			</output>
		</layer>
		<layer id="30" name="pool2/WithoutBiases" type="Convolution" version="opset1">
			<data dilations="1,1" output_padding="0,0" pads_begin="1,1" pads_end="1,1" strides="2,2"/>
			<input>
				<port id="0">
					<dim>1</dim>
					<dim>32</dim>
					<dim>30</dim>
					<dim>30</dim>
				</port>
				<port id="1">
					<dim>16</dim>
					<dim>32</dim>
					<dim>3</dim>
					<dim>3</dim>
				</port>
			</input>
			<output>
				<port id="2" precision="FP32">
					<dim>1</dim>
					<dim>16</dim>
					<dim>15</dim>
					<dim>15</dim>
				</port>
			</output>
		</layer>
		<layer id="31" name="pool2/Dims4725/copy_const483_const" type="Const" version="opset1">
			<data element_type="f32" offset="48224" shape="1,16,1,1" size="64"/>
			<output>
				<port id="1" precision="FP32">
					<dim>1</dim>
					<dim>16</dim>
					<dim>1</dim>
					<dim>1</dim>
				</port>
			</output>
		</layer>
		<layer id="32" name="pool2" type="Add" version="opset1">
			<input>
				<port id="0">
					<dim>1</dim>
					<dim>16</dim>
					<dim>15</dim>
					<dim>15</dim>
				</port>
				<port id="1">
					<dim>1</dim>
					<dim>16</dim>
					<dim>1</dim>
					<dim>1</dim>
				</port>
			</input>
			<output>
				<port id="2" precision="FP32">
					<dim>1</dim>
					<dim>16</dim>
					<dim>15</dim>
					<dim>15</dim>
				</port>
			</output>
		</layer>
		<layer id="33" name="Mul1_7106/Fused_Mul_83798381_const485_const" type="Const" version="opset1">
			<data element_type="f32" offset="48288" shape="64,16,3,3" size="36864"/>
			<output>
				<port id="1" precision="FP32">
					<dim>64</dim>
					<dim>16</dim>
					<dim>3</dim>
					<dim>3</dim>
				</port>
			</output>
		</layer>
		<layer id="34" name="conv3/WithoutBiases" type="Convolution" version="opset1">
			<data dilations="1,1" output_padding="0,0" pads_begin="1,1" pads_end="1,1" strides="1,1"/>
			<input>
				<port id="0">
					<dim>1</dim>
					<dim>16</dim>
					<dim>15</dim>
					<dim>15</dim>
				</port>
				<port id="1">
					<dim>64</dim>
					<dim>16</dim>
					<dim>3</dim>
					<dim>3</dim>
				</port>
			</input>
			<output>
				<port id="2" precision="FP32">
					<dim>1</dim>
					<dim>64</dim>
					<dim>15</dim>
					<dim>15</dim>
				</port>
			</output>
		</layer>
		<layer id="35" name="data_add_77697774/copy_const487_const" type="Const" version="opset1">
			<data element_type="f32" offset="85152" shape="1,64,1,1" size="256"/>
			<output>
				<port id="1" precision="FP32">
					<dim>1</dim>
					<dim>64</dim>
					<dim>1</dim>
					<dim>1</dim>
				</port>
			</output>
		</layer>
		<layer id="36" name="conv3/Fused_Add_" type="Add" version="opset1">
			<input>
				<port id="0">
					<dim>1</dim>
					<dim>64</dim>
					<dim>15</dim>
					<dim>15</dim>
				</port>
				<port id="1">
					<dim>1</dim>
					<dim>64</dim>
					<dim>1</dim>
					<dim>1</dim>
				</port>
			</input>
			<output>
				<port id="2" precision="FP32">
					<dim>1</dim>
					<dim>64</dim>
					<dim>15</dim>
					<dim>15</dim>
				</port>
			</output>
		</layer>
		<layer id="37" name="relu_conv3" type="ReLU" version="opset1">
			<input>
				<port id="0">
					<dim>1</dim>
					<dim>64</dim>
					<dim>15</dim>
					<dim>15</dim>
				</port>
			</input>
			<output>
				<port id="1" precision="FP32">
					<dim>1</dim>
					<dim>64</dim>
					<dim>15</dim>
					<dim>15</dim>
				</port>
			</output>
		</layer>
		<layer id="38" name="29372941_const" type="Const" version="opset1">
			<data element_type="f32" offset="29656" shape="" size="4"/>
			<output>
				<port id="1" precision="FP32"/>
			</output>
		</layer>
		<layer id="39" name="29382942_const" type="Const" version="opset1">
			<data element_type="f32" offset="85408" shape="" size="4"/>
			<output>
				<port id="1" precision="FP32"/>
			</output>
		</layer>
		<layer id="40" name="29392943_const" type="Const" version="opset1">
			<data element_type="f32" offset="29656" shape="" size="4"/>
			<output>
				<port id="1" precision="FP32"/>
			</output>
		</layer>
		<layer id="41" name="29402944_const" type="Const" version="opset1">
			<data element_type="f32" offset="85408" shape="" size="4"/>
			<output>
				<port id="1" precision="FP32"/>
			</output>
		</layer>
		<layer id="42" name="pool3/WithoutBiases/fq_input_0" type="FakeQuantize" version="opset1">
			<data levels="256"/>
			<input>
				<port id="0">
					<dim>1</dim>
					<dim>64</dim>
					<dim>15</dim>
					<dim>15</dim>
				</port>
				<port id="1"/>
				<port id="2"/>
				<port id="3"/>
				<port id="4"/>
			</input>
			<output>
				<port id="5" precision="FP32">
					<dim>1</dim>
					<dim>64</dim>
					<dim>15</dim>
					<dim>15</dim>
				</port>
			</output>
		</layer>
		<layer id="43" name="443/Output_0/Data__const490_const" type="Const" version="opset1">
			<data element_type="f32" offset="85412" shape="32,64,3,3" size="73728"/>
			<output>
				<port id="1" precision="FP32">
					<dim>32</dim>
					<dim>64</dim>
					<dim>3</dim>
					<dim>3</dim>
				</port>
			</output>
		</layer>
		<layer id="44" name="29472951_const" type="Const" version="opset1">
			<data element_type="f32" offset="159140" shape="32,1,1,1" size="128"/>
			<output>
				<port id="1" precision="FP32">
					<dim>32</dim>
					<dim>1</dim>
					<dim>1</dim>
					<dim>1</dim>
				</port>
			</output>
		</layer>
		<layer id="45" name="29482952_const" type="Const" version="opset1">
			<data element_type="f32" offset="159268" shape="32,1,1,1" size="128"/>
			<output>
				<port id="1" precision="FP32">
					<dim>32</dim>
					<dim>1</dim>
					<dim>1</dim>
					<dim>1</dim>
				</port>
			</output>
		</layer>
		<layer id="46" name="29492953_const" type="Const" version="opset1">
			<data element_type="f32" offset="159140" shape="32,1,1,1" size="128"/>
			<output>
				<port id="1" precision="FP32">
					<dim>32</dim>
					<dim>1</dim>
					<dim>1</dim>
					<dim>1</dim>
				</port>
			</output>
		</layer>
		<layer id="47" name="29502954_const" type="Const" version="opset1">
			<data element_type="f32" offset="159268" shape="32,1,1,1" size="128"/>
			<output>
				<port id="1" precision="FP32">
					<dim>32</dim>
					<dim>1</dim>
					<dim>1</dim>
					<dim>1</dim>
				</port>
			</output>
		</layer>
		<layer id="48" name="pool3/WithoutBiases/fq_weights_1" type="FakeQuantize" version="opset1">
			<data levels="255"/>
			<input>
				<port id="0">
					<dim>32</dim>
					<dim>64</dim>
					<dim>3</dim>
					<dim>3</dim>
				</port>
				<port id="1">
					<dim>32</dim>
					<dim>1</dim>
					<dim>1</dim>
					<dim>1</dim>
				</port>
				<port id="2">
					<dim>32</dim>
					<dim>1</dim>
					<dim>1</dim>
					<dim>1</dim>
				</port>
				<port id="3">
					<dim>32</dim>
					<dim>1</dim>
					<dim>1</dim>
					<dim>1</dim>
				</port>
				<port id="4">
					<dim>32</dim>
					<dim>1</dim>
					<dim>1</dim>
					<dim>1</dim>
				</port>
			</input>
			<output>
				<port id="5" precision="FP32">
					<dim>32</dim>
					<dim>64</dim>
					<dim>3</dim>
					<dim>3</dim>
				</port>
			</output>
		</layer>
		<layer id="49" name="pool3/WithoutBiases" type="Convolution" version="opset1">
			<data dilations="1,1" output_padding="0,0" pads_begin="1,1" pads_end="1,1" strides="2,2"/>
			<input>
				<port id="0">
					<dim>1</dim>
					<dim>64</dim>
					<dim>15</dim>
					<dim>15</dim>
				</port>
				<port id="1">
					<dim>32</dim>
					<dim>64</dim>
					<dim>3</dim>
					<dim>3</dim>
				</port>
			</input>
			<output>
				<port id="2" precision="FP32">
					<dim>1</dim>
					<dim>32</dim>
					<dim>8</dim>
					<dim>8</dim>
				</port>
			</output>
		</layer>
		<layer id="50" name="pool3/Dims4845/copy_const492_const" type="Const" version="opset1">
			<data element_type="f32" offset="159396" shape="1,32,1,1" size="128"/>
			<output>
				<port id="1" precision="FP32">
					<dim>1</dim>
					<dim>32</dim>
					<dim>1</dim>
					<dim>1</dim>
				</port>
			</output>
		</layer>
		<layer id="51" name="pool3" type="Add" version="opset1">
			<input>
				<port id="0">
					<dim>1</dim>
					<dim>32</dim>
					<dim>8</dim>
					<dim>8</dim>
				</port>
				<port id="1">
					<dim>1</dim>
					<dim>32</dim>
					<dim>1</dim>
					<dim>1</dim>
				</port>
			</input>
			<output>
				<port id="2" precision="FP32">
					<dim>1</dim>
					<dim>32</dim>
					<dim>8</dim>
					<dim>8</dim>
				</port>
			</output>
		</layer>
		<layer id="52" name="19671971_const" type="Const" version="opset1">
			<data element_type="f32" offset="159524" shape="" size="4"/>
			<output>
				<port id="1" precision="FP32"/>
			</output>
		</layer>
		<layer id="53" name="19681972_const" type="Const" version="opset1">
			<data element_type="f32" offset="159528" shape="" size="4"/>
			<output>
				<port id="1" precision="FP32"/>
			</output>
		</layer>
		<layer id="54" name="19691973_const" type="Const" version="opset1">
			<data element_type="f32" offset="159524" shape="" size="4"/>
			<output>
				<port id="1" precision="FP32"/>
			</output>
		</layer>
		<layer id="55" name="19701974_const" type="Const" version="opset1">
			<data element_type="f32" offset="159528" shape="" size="4"/>
			<output>
				<port id="1" precision="FP32"/>
			</output>
		</layer>
		<layer id="56" name="conv4/WithoutBiases/fq_input_0" type="FakeQuantize" version="opset1">
			<data levels="256"/>
			<input>
				<port id="0">
					<dim>1</dim>
					<dim>32</dim>
					<dim>8</dim>
					<dim>8</dim>
				</port>
				<port id="1"/>
				<port id="2"/>
				<port id="3"/>
				<port id="4"/>
			</input>
			<output>
				<port id="5" precision="FP32">
					<dim>1</dim>
					<dim>32</dim>
					<dim>8</dim>
					<dim>8</dim>
				</port>
			</output>
		</layer>
		<layer id="57" name="Mul1_7118/Fused_Mul_83838385_const494_const" type="Const" version="opset1">
			<data element_type="f32" offset="159532" shape="128,32,3,3" size="147456"/>
			<output>
				<port id="1" precision="FP32">
					<dim>128</dim>
					<dim>32</dim>
					<dim>3</dim>
					<dim>3</dim>
				</port>
			</output>
		</layer>
		<layer id="58" name="19771981_const" type="Const" version="opset1">
			<data element_type="f32" offset="306988" shape="128,1,1,1" size="512"/>
			<output>
				<port id="1" precision="FP32">
					<dim>128</dim>
					<dim>1</dim>
					<dim>1</dim>
					<dim>1</dim>
				</port>
			</output>
		</layer>
		<layer id="59" name="19781982_const" type="Const" version="opset1">
			<data element_type="f32" offset="307500" shape="128,1,1,1" size="512"/>
			<output>
				<port id="1" precision="FP32">
					<dim>128</dim>
					<dim>1</dim>
					<dim>1</dim>
					<dim>1</dim>
				</port>
			</output>
		</layer>
		<layer id="60" name="19791983_const" type="Const" version="opset1">
			<data element_type="f32" offset="306988" shape="128,1,1,1" size="512"/>
			<output>
				<port id="1" precision="FP32">
					<dim>128</dim>
					<dim>1</dim>
					<dim>1</dim>
					<dim>1</dim>
				</port>
			</output>
		</layer>
		<layer id="61" name="19801984_const" type="Const" version="opset1">
			<data element_type="f32" offset="307500" shape="128,1,1,1" size="512"/>
			<output>
				<port id="1" precision="FP32">
					<dim>128</dim>
					<dim>1</dim>
					<dim>1</dim>
					<dim>1</dim>
				</port>
			</output>
		</layer>
		<layer id="62" name="conv4/WithoutBiases/fq_weights_1" type="FakeQuantize" version="opset1">
			<data levels="255"/>
			<input>
				<port id="0">
					<dim>128</dim>
					<dim>32</dim>
					<dim>3</dim>
					<dim>3</dim>
				</port>
				<port id="1">
					<dim>128</dim>
					<dim>1</dim>
					<dim>1</dim>
					<dim>1</dim>
				</port>
				<port id="2">
					<dim>128</dim>
					<dim>1</dim>
					<dim>1</dim>
					<dim>1</dim>
				</port>
				<port id="3">
					<dim>128</dim>
					<dim>1</dim>
					<dim>1</dim>
					<dim>1</dim>
				</port>
				<port id="4">
					<dim>128</dim>
					<dim>1</dim>
					<dim>1</dim>
					<dim>1</dim>
				</port>
			</input>
			<output>
				<port id="5" precision="FP32">
					<dim>128</dim>
					<dim>32</dim>
					<dim>3</dim>
					<dim>3</dim>
				</port>
			</output>
		</layer>
		<layer id="63" name="conv4/WithoutBiases" type="Convolution" version="opset1">
			<data dilations="1,1" output_padding="0,0" pads_begin="1,1" pads_end="1,1" strides="1,1"/>
			<input>
				<port id="0">
					<dim>1</dim>
					<dim>32</dim>
					<dim>8</dim>
					<dim>8</dim>
				</port>
				<port id="1">
					<dim>128</dim>
					<dim>32</dim>
					<dim>3</dim>
					<dim>3</dim>
				</port>
			</input>
			<output>
				<port id="2" precision="FP32">
					<dim>1</dim>
					<dim>128</dim>
					<dim>8</dim>
					<dim>8</dim>
				</port>
			</output>
		</layer>
		<layer id="64" name="data_add_77777782/copy_const496_const" type="Const" version="opset1">
			<data element_type="f32" offset="308012" shape="1,128,1,1" size="512"/>
			<output>
				<port id="1" precision="FP32">
					<dim>1</dim>
					<dim>128</dim>
					<dim>1</dim>
					<dim>1</dim>
				</port>
			</output>
		</layer>
		<layer id="65" name="conv4/Fused_Add_" type="Add" version="opset1">
			<input>
				<port id="0">
					<dim>1</dim>
					<dim>128</dim>
					<dim>8</dim>
					<dim>8</dim>
				</port>
				<port id="1">
					<dim>1</dim>
					<dim>128</dim>
					<dim>1</dim>
					<dim>1</dim>
				</port>
			</input>
			<output>
				<port id="2" precision="FP32">
					<dim>1</dim>
					<dim>128</dim>
					<dim>8</dim>
					<dim>8</dim>
				</port>
			</output>
		</layer>
		<layer id="66" name="relu_conv4" type="ReLU" version="opset1">
			<input>
				<port id="0">
					<dim>1</dim>
					<dim>128</dim>
					<dim>8</dim>
					<dim>8</dim>
				</port>
			</input>
			<output>
				<port id="1" precision="FP32">
					<dim>1</dim>
					<dim>128</dim>
					<dim>8</dim>
					<dim>8</dim>
				</port>
			</output>
		</layer>
		<layer id="67" name="19271931_const" type="Const" version="opset1">
			<data element_type="f32" offset="29656" shape="" size="4"/>
			<output>
				<port id="1" precision="FP32"/>
			</output>
		</layer>
		<layer id="68" name="19281932_const" type="Const" version="opset1">
			<data element_type="f32" offset="308524" shape="" size="4"/>
			<output>
				<port id="1" precision="FP32"/>
			</output>
		</layer>
		<layer id="69" name="19291933_const" type="Const" version="opset1">
			<data element_type="f32" offset="29656" shape="" size="4"/>
			<output>
				<port id="1" precision="FP32"/>
			</output>
		</layer>
		<layer id="70" name="19301934_const" type="Const" version="opset1">
			<data element_type="f32" offset="308524" shape="" size="4"/>
			<output>
				<port id="1" precision="FP32"/>
			</output>
		</layer>
		<layer id="71" name="pool4/WithoutBiases/fq_input_0" type="FakeQuantize" version="opset1">
			<data levels="256"/>
			<input>
				<port id="0">
					<dim>1</dim>
					<dim>128</dim>
					<dim>8</dim>
					<dim>8</dim>
				</port>
				<port id="1"/>
				<port id="2"/>
				<port id="3"/>
				<port id="4"/>
			</input>
			<output>
				<port id="5" precision="FP32">
					<dim>1</dim>
					<dim>128</dim>
					<dim>8</dim>
					<dim>8</dim>
				</port>
			</output>
		</layer>
		<layer id="72" name="239/Output_0/Data__const499_const" type="Const" version="opset1">
			<data element_type="f32" offset="308528" shape="64,128,3,3" size="294912"/>
			<output>
				<port id="1" precision="FP32">
					<dim>64</dim>
					<dim>128</dim>
					<dim>3</dim>
					<dim>3</dim>
				</port>
			</output>
		</layer>
		<layer id="73" name="19371941_const" type="Const" version="opset1">
			<data element_type="f32" offset="603440" shape="64,1,1,1" size="256"/>
			<output>
				<port id="1" precision="FP32">
					<dim>64</dim>
					<dim>1</dim>
					<dim>1</dim>
					<dim>1</dim>
				</port>
			</output>
		</layer>
		<layer id="74" name="19381942_const" type="Const" version="opset1">
			<data element_type="f32" offset="603696" shape="64,1,1,1" size="256"/>
			<output>
				<port id="1" precision="FP32">
					<dim>64</dim>
					<dim>1</dim>
					<dim>1</dim>
					<dim>1</dim>
				</port>
			</output>
		</layer>
		<layer id="75" name="19391943_const" type="Const" version="opset1">
			<data element_type="f32" offset="603440" shape="64,1,1,1" size="256"/>
			<output>
				<port id="1" precision="FP32">
					<dim>64</dim>
					<dim>1</dim>
					<dim>1</dim>
					<dim>1</dim>
				</port>
			</output>
		</layer>
		<layer id="76" name="19401944_const" type="Const" version="opset1">
			<data element_type="f32" offset="603696" shape="64,1,1,1" size="256"/>
			<output>
				<port id="1" precision="FP32">
					<dim>64</dim>
					<dim>1</dim>
					<dim>1</dim>
					<dim>1</dim>
				</port>
			</output>
		</layer>
		<layer id="77" name="pool4/WithoutBiases/fq_weights_1" type="FakeQuantize" version="opset1">
			<data levels="255"/>
			<input>
				<port id="0">
					<dim>64</dim>
					<dim>128</dim>
					<dim>3</dim>
					<dim>3</dim>
				</port>
				<port id="1">
					<dim>64</dim>
					<dim>1</dim>
					<dim>1</dim>
					<dim>1</dim>
				</port>
				<port id="2">
					<dim>64</dim>
					<dim>1</dim>
					<dim>1</dim>
					<dim>1</dim>
				</port>
				<port id="3">
					<dim>64</dim>
					<dim>1</dim>
					<dim>1</dim>
					<dim>1</dim>
				</port>
				<port id="4">
					<dim>64</dim>
					<dim>1</dim>
					<dim>1</dim>
					<dim>1</dim>
				</port>
			</input>
			<output>
				<port id="5" precision="FP32">
					<dim>64</dim>
					<dim>128</dim>
					<dim>3</dim>
					<dim>3</dim>
				</port>
			</output>
		</layer>
		<layer id="78" name="pool4/WithoutBiases" type="Convolution" version="opset1">
			<data dilations="1,1" output_padding="0,0" pads_begin="0,0" pads_end="0,0" strides="2,2"/>
			<input>
				<port id="0">
					<dim>1</dim>
					<dim>128</dim>
					<dim>8</dim>
					<dim>8</dim>
				</port>
				<port id="1">
					<dim>64</dim>
					<dim>128</dim>
					<dim>3</dim>
					<dim>3</dim>
				</port>
			</input>
			<output>
				<port id="2" precision="FP32">
					<dim>1</dim>
					<dim>64</dim>
					<dim>3</dim>
					<dim>3</dim>
				</port>
			</output>
		</layer>
		<layer id="79" name="pool4/Dims4863/copy_const501_const" type="Const" version="opset1">
			<data element_type="f32" offset="603952" shape="1,64,1,1" size="256"/>
			<output>
				<port id="1" precision="FP32">
					<dim>1</dim>
					<dim>64</dim>
					<dim>1</dim>
					<dim>1</dim>
				</port>
			</output>
		</layer>
		<layer id="80" name="pool4" type="Add" version="opset1">
			<input>
				<port id="0">
					<dim>1</dim>
					<dim>64</dim>
					<dim>3</dim>
					<dim>3</dim>
				</port>
				<port id="1">
					<dim>1</dim>
					<dim>64</dim>
					<dim>1</dim>
					<dim>1</dim>
				</port>
			</input>
			<output>
				<port id="2" precision="FP32">
					<dim>1</dim>
					<dim>64</dim>
					<dim>3</dim>
					<dim>3</dim>
				</port>
			</output>
		</layer>
		<layer id="81" name="30773081_const" type="Const" version="opset1">
			<data element_type="f32" offset="604208" shape="" size="4"/>
			<output>
				<port id="1" precision="FP32"/>
			</output>
		</layer>
		<layer id="82" name="30783082_const" type="Const" version="opset1">
			<data element_type="f32" offset="604212" shape="" size="4"/>
			<output>
				<port id="1" precision="FP32"/>
			</output>
		</layer>
		<layer id="83" name="30793083_const" type="Const" version="opset1">
			<data element_type="f32" offset="604208" shape="" size="4"/>
			<output>
				<port id="1" precision="FP32"/>
			</output>
		</layer>
		<layer id="84" name="30803084_const" type="Const" version="opset1">
			<data element_type="f32" offset="604212" shape="" size="4"/>
			<output>
				<port id="1" precision="FP32"/>
			</output>
		</layer>
		<layer id="85" name="conv5/WithoutBiases/fq_input_0" type="FakeQuantize" version="opset1">
			<data levels="256"/>
			<input>
				<port id="0">
					<dim>1</dim>
					<dim>64</dim>
					<dim>3</dim>
					<dim>3</dim>
				</port>
				<port id="1"/>
				<port id="2"/>
				<port id="3"/>
				<port id="4"/>
			</input>
			<output>
				<port id="5" precision="FP32">
					<dim>1</dim>
					<dim>64</dim>
					<dim>3</dim>
					<dim>3</dim>
				</port>
			</output>
		</layer>
		<layer id="86" name="Mul1_7130/Fused_Mul_83878389_const503_const" type="Const" version="opset1">
			<data element_type="f32" offset="604216" shape="256,64,3,3" size="589824"/>
			<output>
				<port id="1" precision="FP32">
					<dim>256</dim>
					<dim>64</dim>
					<dim>3</dim>
					<dim>3</dim>
				</port>
			</output>
		</layer>
		<layer id="87" name="30873091_const" type="Const" version="opset1">
			<data element_type="f32" offset="1194040" shape="256,1,1,1" size="1024"/>
			<output>
				<port id="1" precision="FP32">
					<dim>256</dim>
					<dim>1</dim>
					<dim>1</dim>
					<dim>1</dim>
				</port>
			</output>
		</layer>
		<layer id="88" name="30883092_const" type="Const" version="opset1">
			<data element_type="f32" offset="1195064" shape="256,1,1,1" size="1024"/>
			<output>
				<port id="1" precision="FP32">
					<dim>256</dim>
					<dim>1</dim>
					<dim>1</dim>
					<dim>1</dim>
				</port>
			</output>
		</layer>
		<layer id="89" name="30893093_const" type="Const" version="opset1">
			<data element_type="f32" offset="1194040" shape="256,1,1,1" size="1024"/>
			<output>
				<port id="1" precision="FP32">
					<dim>256</dim>
					<dim>1</dim>
					<dim>1</dim>
					<dim>1</dim>
				</port>
			</output>
		</layer>
		<layer id="90" name="30903094_const" type="Const" version="opset1">
			<data element_type="f32" offset="1195064" shape="256,1,1,1" size="1024"/>
			<output>
				<port id="1" precision="FP32">
					<dim>256</dim>
					<dim>1</dim>
					<dim>1</dim>
					<dim>1</dim>
				</port>
			</output>
		</layer>
		<layer id="91" name="conv5/WithoutBiases/fq_weights_1" type="FakeQuantize" version="opset1">
			<data levels="255"/>
			<input>
				<port id="0">
					<dim>256</dim>
					<dim>64</dim>
					<dim>3</dim>
					<dim>3</dim>
				</port>
				<port id="1">
					<dim>256</dim>
					<dim>1</dim>
					<dim>1</dim>
					<dim>1</dim>
				</port>
				<port id="2">
					<dim>256</dim>
					<dim>1</dim>
					<dim>1</dim>
					<dim>1</dim>
				</port>
				<port id="3">
					<dim>256</dim>
					<dim>1</dim>
					<dim>1</dim>
					<dim>1</dim>
				</port>
				<port id="4">
					<dim>256</dim>
					<dim>1</dim>
					<dim>1</dim>
					<dim>1</dim>
				</port>
			</input>
			<output>
				<port id="5" precision="FP32">
					<dim>256</dim>
					<dim>64</dim>
					<dim>3</dim>
					<dim>3</dim>
				</port>
			</output>
		</layer>
		<layer id="92" name="conv5/WithoutBiases" type="Convolution" version="opset1">
			<data dilations="1,1" output_padding="0,0" pads_begin="1,1" pads_end="1,1" strides="1,1"/>
			<input>
				<port id="0">
					<dim>1</dim>
					<dim>64</dim>
					<dim>3</dim>
					<dim>3</dim>
				</port>
				<port id="1">
					<dim>256</dim>
					<dim>64</dim>
					<dim>3</dim>
					<dim>3</dim>
				</port>
			</input>
			<output>
				<port id="2" precision="FP32">
					<dim>1</dim>
					<dim>256</dim>
					<dim>3</dim>
					<dim>3</dim>
				</port>
			</output>
		</layer>
		<layer id="93" name="data_add_77857790/copy_const505_const" type="Const" version="opset1">
			<data element_type="f32" offset="1196088" shape="1,256,1,1" size="1024"/>
			<output>
				<port id="1" precision="FP32">
					<dim>1</dim>
					<dim>256</dim>
					<dim>1</dim>
					<dim>1</dim>
				</port>
			</output>
		</layer>
		<layer id="94" name="conv5/Fused_Add_" type="Add" version="opset1">
			<input>
				<port id="0">
					<dim>1</dim>
					<dim>256</dim>
					<dim>3</dim>
					<dim>3</dim>
				</port>
				<port id="1">
					<dim>1</dim>
					<dim>256</dim>
					<dim>1</dim>
					<dim>1</dim>
				</port>
			</input>
			<output>
				<port id="2" precision="FP32">
					<dim>1</dim>
					<dim>256</dim>
					<dim>3</dim>
					<dim>3</dim>
				</port>
			</output>
		</layer>
		<layer id="95" name="relu_conv5" type="ReLU" version="opset1">
			<input>
				<port id="0">
					<dim>1</dim>
					<dim>256</dim>
					<dim>3</dim>
					<dim>3</dim>
				</port>
			</input>
			<output>
				<port id="1" precision="FP32">
					<dim>1</dim>
					<dim>256</dim>
					<dim>3</dim>
					<dim>3</dim>
				</port>
			</output>
		</layer>
		<layer id="96" name="14471451_const" type="Const" version="opset1">
			<data element_type="f32" offset="29656" shape="" size="4"/>
			<output>
				<port id="1" precision="FP32"/>
			</output>
		</layer>
		<layer id="97" name="14481452_const" type="Const" version="opset1">
			<data element_type="f32" offset="1197112" shape="" size="4"/>
			<output>
				<port id="1" precision="FP32"/>
			</output>
		</layer>
		<layer id="98" name="14491453_const" type="Const" version="opset1">
			<data element_type="f32" offset="29656" shape="" size="4"/>
			<output>
				<port id="1" precision="FP32"/>
			</output>
		</layer>
		<layer id="99" name="14501454_const" type="Const" version="opset1">
			<data element_type="f32" offset="1197112" shape="" size="4"/>
			<output>
				<port id="1" precision="FP32"/>
			</output>
		</layer>
		<layer id="100" name="conv_fm/WithoutBiases/fq_input_0" type="FakeQuantize" version="opset1">
			<data levels="256"/>
			<input>
				<port id="0">
					<dim>1</dim>
					<dim>256</dim>
					<dim>3</dim>
					<dim>3</dim>
				</port>
				<port id="1"/>
				<port id="2"/>
				<port id="3"/>
				<port id="4"/>
			</input>
			<output>
				<port id="5" precision="FP32">
					<dim>1</dim>
					<dim>256</dim>
					<dim>3</dim>
					<dim>3</dim>
				</port>
			</output>
		</layer>
		<layer id="101" name="429/Output_0/Data__const508_const" type="Const" version="opset1">
			<data element_type="f32" offset="1197116" shape="512,256,3,3" size="4718592"/>
			<output>
				<port id="1" precision="FP32">
					<dim>512</dim>
					<dim>256</dim>
					<dim>3</dim>
					<dim>3</dim>
				</port>
			</output>
		</layer>
		<layer id="102" name="14571461_const" type="Const" version="opset1">
			<data element_type="f32" offset="5915708" shape="512,1,1,1" size="2048"/>
			<output>
				<port id="1" precision="FP32">
					<dim>512</dim>
					<dim>1</dim>
					<dim>1</dim>
					<dim>1</dim>
				</port>
			</output>
		</layer>
		<layer id="103" name="14581462_const" type="Const" version="opset1">
			<data element_type="f32" offset="5917756" shape="512,1,1,1" size="2048"/>
			<output>
				<port id="1" precision="FP32">
					<dim>512</dim>
					<dim>1</dim>
					<dim>1</dim>
					<dim>1</dim>
				</port>
			</output>
		</layer>
		<layer id="104" name="14591463_const" type="Const" version="opset1">
			<data element_type="f32" offset="5915708" shape="512,1,1,1" size="2048"/>
			<output>
				<port id="1" precision="FP32">
					<dim>512</dim>
					<dim>1</dim>
					<dim>1</dim>
					<dim>1</dim>
				</port>
			</output>
		</layer>
		<layer id="105" name="14601464_const" type="Const" version="opset1">
			<data element_type="f32" offset="5917756" shape="512,1,1,1" size="2048"/>
			<output>
				<port id="1" precision="FP32">
					<dim>512</dim>
					<dim>1</dim>
					<dim>1</dim>
					<dim>1</dim>
				</port>
			</output>
		</layer>
		<layer id="106" name="conv_fm/WithoutBiases/fq_weights_1" type="FakeQuantize" version="opset1">
			<data levels="255"/>
			<input>
				<port id="0">
					<dim>512</dim>
					<dim>256</dim>
					<dim>3</dim>
					<dim>3</dim>
				</port>
				<port id="1">
					<dim>512</dim>
					<dim>1</dim>
					<dim>1</dim>
					<dim>1</dim>
				</port>
				<port id="2">
					<dim>512</dim>
					<dim>1</dim>
					<dim>1</dim>
					<dim>1</dim>
				</port>
				<port id="3">
					<dim>512</dim>
					<dim>1</dim>
					<dim>1</dim>
					<dim>1</dim>
				</port>
				<port id="4">
					<dim>512</dim>
					<dim>1</dim>
					<dim>1</dim>
					<dim>1</dim>
				</port>
			</input>
			<output>
				<port id="5" precision="FP32">
					<dim>512</dim>
					<dim>256</dim>
					<dim>3</dim>
					<dim>3</dim>
				</port>
			</output>
		</layer>
		<layer id="107" name="conv_fm/WithoutBiases" type="Convolution" version="opset1">
			<data dilations="1,1" output_padding="0,0" pads_begin="0,0" pads_end="0,0" strides="1,1"/>
			<input>
				<port id="0">
					<dim>1</dim>
					<dim>256</dim>
					<dim>3</dim>
					<dim>3</dim>
				</port>
				<port id="1">
					<dim>512</dim>
					<dim>256</dim>
					<dim>3</dim>
					<dim>3</dim>
				</port>
			</input>
			<output>
				<port id="2" precision="FP32">
					<dim>1</dim>
					<dim>512</dim>
					<dim>1</dim>
					<dim>1</dim>
				</port>
			</output>
		</layer>
		<layer id="108" name="conv_fm/Dims5097/copy_const510_const" type="Const" version="opset1">
			<data element_type="f32" offset="5919804" shape="1,512,1,1" size="2048"/>
			<output>
				<port id="1" precision="FP32">
					<dim>1</dim>
					<dim>512</dim>
					<dim>1</dim>
					<dim>1</dim>
				</port>
			</output>
		</layer>
		<layer id="109" name="conv_fm" type="Add" version="opset1">
			<input>
				<port id="0">
					<dim>1</dim>
					<dim>512</dim>
					<dim>1</dim>
					<dim>1</dim>
				</port>
				<port id="1">
					<dim>1</dim>
					<dim>512</dim>
					<dim>1</dim>
					<dim>1</dim>
				</port>
			</input>
			<output>
				<port id="2" precision="FP32">
					<dim>1</dim>
					<dim>512</dim>
					<dim>1</dim>
					<dim>1</dim>
				</port>
			</output>
		</layer>
		<layer id="110" name="15071511_const" type="Const" version="opset1">
			<data element_type="f32" offset="5921852" shape="" size="4"/>
			<output>
				<port id="1" precision="FP32"/>
			</output>
		</layer>
		<layer id="111" name="15081512_const" type="Const" version="opset1">
			<data element_type="f32" offset="5921856" shape="" size="4"/>
			<output>
				<port id="1" precision="FP32"/>
			</output>
		</layer>
		<layer id="112" name="15091513_const" type="Const" version="opset1">
			<data element_type="f32" offset="5921852" shape="" size="4"/>
			<output>
				<port id="1" precision="FP32"/>
			</output>
		</layer>
		<layer id="113" name="15101514_const" type="Const" version="opset1">
			<data element_type="f32" offset="5921856" shape="" size="4"/>
			<output>
				<port id="1" precision="FP32"/>
			</output>
		</layer>
		<layer id="114" name="landmarks_conv_edge_61/WithoutBiases/fq_input_0" type="FakeQuantize" version="opset1">
			<data levels="256"/>
			<input>
				<port id="0">
					<dim>1</dim>
					<dim>512</dim>
					<dim>1</dim>
					<dim>1</dim>
				</port>
				<port id="1"/>
				<port id="2"/>
				<port id="3"/>
				<port id="4"/>
			</input>
			<output>
				<port id="5" precision="FP32">
					<dim>1</dim>
					<dim>512</dim>
					<dim>1</dim>
					<dim>1</dim>
				</port>
			</output>
		</layer>
		<layer id="115" name="Mul1_7142/Fused_Mul_84158417_const512_const" type="Const" version="opset1">
			<data element_type="f32" offset="5921860" shape="256,512,1,1" size="524288"/>
			<output>
				<port id="1" precision="FP32">
					<dim>256</dim>
					<dim>512</dim>
					<dim>1</dim>
					<dim>1</dim>
				</port>
			</output>
		</layer>
		<layer id="116" name="21572161_const" type="Const" version="opset1">
			<data element_type="f32" offset="6446148" shape="256,1,1,1" size="1024"/>
			<output>
				<port id="1" precision="FP32">
					<dim>256</dim>
					<dim>1</dim>
					<dim>1</dim>
					<dim>1</dim>
				</port>
			</output>
		</layer>
		<layer id="117" name="21582162_const" type="Const" version="opset1">
			<data element_type="f32" offset="6447172" shape="256,1,1,1" size="1024"/>
			<output>
				<port id="1" precision="FP32">
					<dim>256</dim>
					<dim>1</dim>
					<dim>1</dim>
					<dim>1</dim>
				</port>
			</output>
		</layer>
		<layer id="118" name="21592163_const" type="Const" version="opset1">
			<data element_type="f32" offset="6446148" shape="256,1,1,1" size="1024"/>
			<output>
				<port id="1" precision="FP32">
					<dim>256</dim>
					<dim>1</dim>
					<dim>1</dim>
					<dim>1</dim>
				</port>
			</output>
		</layer>
		<layer id="119" name="21602164_const" type="Const" version="opset1">
			<data element_type="f32" offset="6447172" shape="256,1,1,1" size="1024"/>
			<output>
				<port id="1" precision="FP32">
					<dim>256</dim>
					<dim>1</dim>
					<dim>1</dim>
					<dim>1</dim>
				</port>
			</output>
		</layer>
		<layer id="120" name="landmarks_conv_leye_corner/WithoutBiases/fq_weights_1" type="FakeQuantize" version="opset1">
			<data levels="255"/>
			<input>
				<port id="0">
					<dim>256</dim>
					<dim>512</dim>
					<dim>1</dim>
					<dim>1</dim>
				</port>
				<port id="1">
					<dim>256</dim>
					<dim>1</dim>
					<dim>1</dim>
					<dim>1</dim>
				</port>
				<port id="2">
					<dim>256</dim>
					<dim>1</dim>
					<dim>1</dim>
					<dim>1</dim>
				</port>
				<port id="3">
					<dim>256</dim>
					<dim>1</dim>
					<dim>1</dim>
					<dim>1</dim>
				</port>
				<port id="4">
					<dim>256</dim>
					<dim>1</dim>
					<dim>1</dim>
					<dim>1</dim>
				</port>
			</input>
			<output>
				<port id="5" precision="FP32">
					<dim>256</dim>
					<dim>512</dim>
					<dim>1</dim>
					<dim>1</dim>
				</port>
			</output>
		</layer>
		<layer id="121" name="landmarks_conv_leye_corner/WithoutBiases" type="Convolution" version="opset1">
			<data dilations="1,1" output_padding="0,0" pads_begin="0,0" pads_end="0,0" strides="1,1"/>
			<input>
				<port id="0">
					<dim>1</dim>
					<dim>512</dim>
					<dim>1</dim>
					<dim>1</dim>
				</port>
				<port id="1">
					<dim>256</dim>
					<dim>512</dim>
					<dim>1</dim>
					<dim>1</dim>
				</port>
			</input>
			<output>
				<port id="2" precision="FP32">
					<dim>1</dim>
					<dim>256</dim>
					<dim>1</dim>
					<dim>1</dim>
				</port>
			</output>
		</layer>
		<layer id="122" name="data_add_78417846/copy_const514_const" type="Const" version="opset1">
			<data element_type="f32" offset="6448196" shape="1,256,1,1" size="1024"/>
			<output>
				<port id="1" precision="FP32">
					<dim>1</dim>
					<dim>256</dim>
					<dim>1</dim>
					<dim>1</dim>
				</port>
			</output>
		</layer>
		<layer id="123" name="landmarks_conv_leye_corner/Fused_Add_" type="Add" version="opset1">
			<input>
				<port id="0">
					<dim>1</dim>
					<dim>256</dim>
					<dim>1</dim>
					<dim>1</dim>
				</port>
				<port id="1">
					<dim>1</dim>
					<dim>256</dim>
					<dim>1</dim>
					<dim>1</dim>
				</port>
			</input>
			<output>
				<port id="2" precision="FP32">
					<dim>1</dim>
					<dim>256</dim>
					<dim>1</dim>
					<dim>1</dim>
				</port>
			</output>
		</layer>
		<layer id="124" name="relu_leye_corner" type="ReLU" version="opset1">
			<input>
				<port id="0">
					<dim>1</dim>
					<dim>256</dim>
					<dim>1</dim>
					<dim>1</dim>
				</port>
			</input>
			<output>
				<port id="1" precision="FP32">
					<dim>1</dim>
					<dim>256</dim>
					<dim>1</dim>
					<dim>1</dim>
				</port>
			</output>
		</layer>
		<layer id="125" name="21072111_const" type="Const" version="opset1">
			<data element_type="f32" offset="29656" shape="" size="4"/>
			<output>
				<port id="1" precision="FP32"/>
			</output>
		</layer>
		<layer id="126" name="21082112_const" type="Const" version="opset1">
			<data element_type="f32" offset="6449220" shape="" size="4"/>
			<output>
				<port id="1" precision="FP32"/>
			</output>
		</layer>
		<layer id="127" name="21092113_const" type="Const" version="opset1">
			<data element_type="f32" offset="29656" shape="" size="4"/>
			<output>
				<port id="1" precision="FP32"/>
			</output>
		</layer>
		<layer id="128" name="21102114_const" type="Const" version="opset1">
			<data element_type="f32" offset="6449220" shape="" size="4"/>
			<output>
				<port id="1" precision="FP32"/>
			</output>
		</layer>
		<layer id="129" name="landmarks_fc_leye_corner_x_new/WithoutBiases/fq_input_0" type="FakeQuantize" version="opset1">
			<data levels="256"/>
			<input>
				<port id="0">
					<dim>1</dim>
					<dim>256</dim>
					<dim>1</dim>
					<dim>1</dim>
				</port>
				<port id="1"/>
				<port id="2"/>
				<port id="3"/>
				<port id="4"/>
			</input>
			<output>
				<port id="5" precision="FP32">
					<dim>1</dim>
					<dim>256</dim>
					<dim>1</dim>
					<dim>1</dim>
				</port>
			</output>
		</layer>
		<layer id="130" name="309/Output_0/Data__const517_const" type="Const" version="opset1">
			<data element_type="f32" offset="6449224" shape="60,256,1,1" size="61440"/>
			<output>
				<port id="1" precision="FP32">
					<dim>60</dim>
					<dim>256</dim>
					<dim>1</dim>
					<dim>1</dim>
				</port>
			</output>
		</layer>
		<layer id="131" name="21172121_const" type="Const" version="opset1">
			<data element_type="f32" offset="6510664" shape="60,1,1,1" size="240"/>
			<output>
				<port id="1" precision="FP32">
					<dim>60</dim>
					<dim>1</dim>
					<dim>1</dim>
					<dim>1</dim>
				</port>
			</output>
		</layer>
		<layer id="132" name="21182122_const" type="Const" version="opset1">
			<data element_type="f32" offset="6510904" shape="60,1,1,1" size="240"/>
			<output>
				<port id="1" precision="FP32">
					<dim>60</dim>
					<dim>1</dim>
					<dim>1</dim>
					<dim>1</dim>
				</port>
			</output>
		</layer>
		<layer id="133" name="21192123_const" type="Const" version="opset1">
			<data element_type="f32" offset="6510664" shape="60,1,1,1" size="240"/>
			<output>
				<port id="1" precision="FP32">
					<dim>60</dim>
					<dim>1</dim>
					<dim>1</dim>
					<dim>1</dim>
				</port>
			</output>
		</layer>
		<layer id="134" name="21202124_const" type="Const" version="opset1">
			<data element_type="f32" offset="6510904" shape="60,1,1,1" size="240"/>
			<output>
				<port id="1" precision="FP32">
					<dim>60</dim>
					<dim>1</dim>
					<dim>1</dim>
					<dim>1</dim>
				</port>
			</output>
		</layer>
		<layer id="135" name="landmarks_fc_leye_corner_x_new/WithoutBiases/fq_weights_1" type="FakeQuantize" version="opset1">
			<data levels="255"/>
			<input>
				<port id="0">
					<dim>60</dim>
					<dim>256</dim>
					<dim>1</dim>
					<dim>1</dim>
				</port>
				<port id="1">
					<dim>60</dim>
					<dim>1</dim>
					<dim>1</dim>
					<dim>1</dim>
				</port>
				<port id="2">
					<dim>60</dim>
					<dim>1</dim>
					<dim>1</dim>
					<dim>1</dim>
				</port>
				<port id="3">
					<dim>60</dim>
					<dim>1</dim>
					<dim>1</dim>
					<dim>1</dim>
				</port>
				<port id="4">
					<dim>60</dim>
					<dim>1</dim>
					<dim>1</dim>
					<dim>1</dim>
				</port>
			</input>
			<output>
				<port id="5" precision="FP32">
					<dim>60</dim>
					<dim>256</dim>
					<dim>1</dim>
					<dim>1</dim>
				</port>
			</output>
		</layer>
		<layer id="136" name="landmarks_fc_leye_corner_x_new/WithoutBiases" type="Convolution" version="opset1">
			<data dilations="1,1" output_padding="0,0" pads_begin="0,0" pads_end="0,0" strides="1,1"/>
			<input>
				<port id="0">
					<dim>1</dim>
					<dim>256</dim>
					<dim>1</dim>
					<dim>1</dim>
				</port>
				<port id="1">
					<dim>60</dim>
					<dim>256</dim>
					<dim>1</dim>
					<dim>1</dim>
				</port>
			</input>
			<output>
				<port id="2" precision="FP32">
					<dim>1</dim>
					<dim>60</dim>
					<dim>1</dim>
					<dim>1</dim>
				</port>
			</output>
		</layer>
		<layer id="137" name="landmarks_fc_leye_corner_x_new/Dims4653/copy_const519_const" type="Const" version="opset1">
			<data element_type="f32" offset="6511144" shape="1,60,1,1" size="240"/>
			<output>
				<port id="1" precision="FP32">
					<dim>1</dim>
					<dim>60</dim>
					<dim>1</dim>
					<dim>1</dim>
				</port>
			</output>
		</layer>
		<layer id="138" name="landmarks_fc_leye_corner_x_new" type="Add" version="opset1">
			<input>
				<port id="0">
					<dim>1</dim>
					<dim>60</dim>
					<dim>1</dim>
					<dim>1</dim>
				</port>
				<port id="1">
					<dim>1</dim>
					<dim>60</dim>
					<dim>1</dim>
					<dim>1</dim>
				</port>
			</input>
			<output>
				<port id="2" precision="FP32">
					<dim>1</dim>
					<dim>60</dim>
					<dim>1</dim>
					<dim>1</dim>
				</port>
			</output>
		</layer>
		<layer id="139" name="softmax_landmarks_leye_corner_x" type="SoftMax" version="opset1">
			<data axis="1"/>
			<input>
				<port id="0">
					<dim>1</dim>
					<dim>60</dim>
					<dim>1</dim>
					<dim>1</dim>
				</port>
			</input>
			<output>
				<port id="1" precision="FP32">
					<dim>1</dim>
					<dim>60</dim>
					<dim>1</dim>
					<dim>1</dim>
				</port>
			</output>
		</layer>
		<layer id="140" name="40324036_const" type="Const" version="opset1">
			<data element_type="f32" offset="29656" shape="" size="4"/>
			<output>
				<port id="1" precision="FP32"/>
			</output>
		</layer>
		<layer id="141" name="40334037_const" type="Const" version="opset1">
			<data element_type="f32" offset="6511384" shape="" size="4"/>
			<output>
				<port id="1" precision="FP32"/>
			</output>
		</layer>
		<layer id="142" name="40344038_const" type="Const" version="opset1">
			<data element_type="f32" offset="29656" shape="" size="4"/>
			<output>
				<port id="1" precision="FP32"/>
			</output>
		</layer>
		<layer id="143" name="40354039_const" type="Const" version="opset1">
			<data element_type="f32" offset="6511384" shape="" size="4"/>
			<output>
				<port id="1" precision="FP32"/>
			</output>
		</layer>
		<layer id="144" name="raw_predicts/fq_input_0" type="FakeQuantize" version="opset1">
			<data levels="256"/>
			<input>
				<port id="0">
					<dim>1</dim>
					<dim>60</dim>
					<dim>1</dim>
					<dim>1</dim>
				</port>
				<port id="1"/>
				<port id="2"/>
				<port id="3"/>
				<port id="4"/>
			</input>
			<output>
				<port id="5" precision="FP32">
					<dim>1</dim>
					<dim>60</dim>
					<dim>1</dim>
					<dim>1</dim>
				</port>
			</output>
		</layer>
		<layer id="145" name="425/Output_0/Data__const522_const" type="Const" version="opset1">
			<data element_type="f32" offset="6511388" shape="60,256,1,1" size="61440"/>
			<output>
				<port id="1" precision="FP32">
					<dim>60</dim>
					<dim>256</dim>
					<dim>1</dim>
					<dim>1</dim>
				</port>
			</output>
		</layer>
		<layer id="146" name="18371841_const" type="Const" version="opset1">
			<data element_type="f32" offset="6572828" shape="60,1,1,1" size="240"/>
			<output>
				<port id="1" precision="FP32">
					<dim>60</dim>
					<dim>1</dim>
					<dim>1</dim>
					<dim>1</dim>
				</port>
			</output>
		</layer>
		<layer id="147" name="18381842_const" type="Const" version="opset1">
			<data element_type="f32" offset="6573068" shape="60,1,1,1" size="240"/>
			<output>
				<port id="1" precision="FP32">
					<dim>60</dim>
					<dim>1</dim>
					<dim>1</dim>
					<dim>1</dim>
				</port>
			</output>
		</layer>
		<layer id="148" name="18391843_const" type="Const" version="opset1">
			<data element_type="f32" offset="6572828" shape="60,1,1,1" size="240"/>
			<output>
				<port id="1" precision="FP32">
					<dim>60</dim>
					<dim>1</dim>
					<dim>1</dim>
					<dim>1</dim>
				</port>
			</output>
		</layer>
		<layer id="149" name="18401844_const" type="Const" version="opset1">
			<data element_type="f32" offset="6573068" shape="60,1,1,1" size="240"/>
			<output>
				<port id="1" precision="FP32">
					<dim>60</dim>
					<dim>1</dim>
					<dim>1</dim>
					<dim>1</dim>
				</port>
			</output>
		</layer>
		<layer id="150" name="landmarks_fc_leye_corner_y_new/WithoutBiases/fq_weights_1" type="FakeQuantize" version="opset1">
			<data levels="255"/>
			<input>
				<port id="0">
					<dim>60</dim>
					<dim>256</dim>
					<dim>1</dim>
					<dim>1</dim>
				</port>
				<port id="1">
					<dim>60</dim>
					<dim>1</dim>
					<dim>1</dim>
					<dim>1</dim>
				</port>
				<port id="2">
					<dim>60</dim>
					<dim>1</dim>
					<dim>1</dim>
					<dim>1</dim>
				</port>
				<port id="3">
					<dim>60</dim>
					<dim>1</dim>
					<dim>1</dim>
					<dim>1</dim>
				</port>
				<port id="4">
					<dim>60</dim>
					<dim>1</dim>
					<dim>1</dim>
					<dim>1</dim>
				</port>
			</input>
			<output>
				<port id="5" precision="FP32">
					<dim>60</dim>
					<dim>256</dim>
					<dim>1</dim>
					<dim>1</dim>
				</port>
			</output>
		</layer>
		<layer id="151" name="landmarks_fc_leye_corner_y_new/WithoutBiases" type="Convolution" version="opset1">
			<data dilations="1,1" output_padding="0,0" pads_begin="0,0" pads_end="0,0" strides="1,1"/>
			<input>
				<port id="0">
					<dim>1</dim>
					<dim>256</dim>
					<dim>1</dim>
					<dim>1</dim>
				</port>
				<port id="1">
					<dim>60</dim>
					<dim>256</dim>
					<dim>1</dim>
					<dim>1</dim>
				</port>
			</input>
			<output>
				<port id="2" precision="FP32">
					<dim>1</dim>
					<dim>60</dim>
					<dim>1</dim>
					<dim>1</dim>
				</port>
			</output>
		</layer>
		<layer id="152" name="landmarks_fc_leye_corner_y_new/Dims4821/copy_const524_const" type="Const" version="opset1">
			<data element_type="f32" offset="6573308" shape="1,60,1,1" size="240"/>
			<output>
				<port id="1" precision="FP32">
					<dim>1</dim>
					<dim>60</dim>
					<dim>1</dim>
					<dim>1</dim>
				</port>
			</output>
		</layer>
		<layer id="153" name="landmarks_fc_leye_corner_y_new" type="Add" version="opset1">
			<input>
				<port id="0">
					<dim>1</dim>
					<dim>60</dim>
					<dim>1</dim>
					<dim>1</dim>
				</port>
				<port id="1">
					<dim>1</dim>
					<dim>60</dim>
					<dim>1</dim>
					<dim>1</dim>
				</port>
			</input>
			<output>
				<port id="2" precision="FP32">
					<dim>1</dim>
					<dim>60</dim>
					<dim>1</dim>
					<dim>1</dim>
				</port>
			</output>
		</layer>
		<layer id="154" name="softmax_landmarks_leye_corner_y" type="SoftMax" version="opset1">
			<data axis="1"/>
			<input>
				<port id="0">
					<dim>1</dim>
					<dim>60</dim>
					<dim>1</dim>
					<dim>1</dim>
				</port>
			</input>
			<output>
				<port id="1" precision="FP32">
					<dim>1</dim>
					<dim>60</dim>
					<dim>1</dim>
					<dim>1</dim>
				</port>
			</output>
		</layer>
		<layer id="155" name="40424046_const" type="Const" version="opset1">
			<data element_type="f32" offset="29656" shape="" size="4"/>
			<output>
				<port id="1" precision="FP32"/>
			</output>
		</layer>
		<layer id="156" name="40434047_const" type="Const" version="opset1">
			<data element_type="f32" offset="6573548" shape="" size="4"/>
			<output>
				<port id="1" precision="FP32"/>
			</output>
		</layer>
		<layer id="157" name="40444048_const" type="Const" version="opset1">
			<data element_type="f32" offset="29656" shape="" size="4"/>
			<output>
				<port id="1" precision="FP32"/>
			</output>
		</layer>
		<layer id="158" name="40454049_const" type="Const" version="opset1">
			<data element_type="f32" offset="6573548" shape="" size="4"/>
			<output>
				<port id="1" precision="FP32"/>
			</output>
		</layer>
		<layer id="159" name="raw_predicts/fq_input_1" type="FakeQuantize" version="opset1">
			<data levels="256"/>
			<input>
				<port id="0">
					<dim>1</dim>
					<dim>60</dim>
					<dim>1</dim>
					<dim>1</dim>
				</port>
				<port id="1"/>
				<port id="2"/>
				<port id="3"/>
				<port id="4"/>
			</input>
			<output>
				<port id="5" precision="FP32">
					<dim>1</dim>
					<dim>60</dim>
					<dim>1</dim>
					<dim>1</dim>
				</port>
			</output>
		</layer>
		<layer id="160" name="289/Output_0/Data__const527_const" type="Const" version="opset1">
			<data element_type="f32" offset="6573552" shape="60,256,1,1" size="61440"/>
			<output>
				<port id="1" precision="FP32">
					<dim>60</dim>
					<dim>256</dim>
					<dim>1</dim>
					<dim>1</dim>
				</port>
			</output>
		</layer>
		<layer id="161" name="18171821_const" type="Const" version="opset1">
			<data element_type="f32" offset="6634992" shape="60,1,1,1" size="240"/>
			<output>
				<port id="1" precision="FP32">
					<dim>60</dim>
					<dim>1</dim>
					<dim>1</dim>
					<dim>1</dim>
				</port>
			</output>
		</layer>
		<layer id="162" name="18181822_const" type="Const" version="opset1">
			<data element_type="f32" offset="6635232" shape="60,1,1,1" size="240"/>
			<output>
				<port id="1" precision="FP32">
					<dim>60</dim>
					<dim>1</dim>
					<dim>1</dim>
					<dim>1</dim>
				</port>
			</output>
		</layer>
		<layer id="163" name="18191823_const" type="Const" version="opset1">
			<data element_type="f32" offset="6634992" shape="60,1,1,1" size="240"/>
			<output>
				<port id="1" precision="FP32">
					<dim>60</dim>
					<dim>1</dim>
					<dim>1</dim>
					<dim>1</dim>
				</port>
			</output>
		</layer>
		<layer id="164" name="18201824_const" type="Const" version="opset1">
			<data element_type="f32" offset="6635232" shape="60,1,1,1" size="240"/>
			<output>
				<port id="1" precision="FP32">
					<dim>60</dim>
					<dim>1</dim>
					<dim>1</dim>
					<dim>1</dim>
				</port>
			</output>
		</layer>
		<layer id="165" name="landmarks_fc_leye_x_new/WithoutBiases/fq_weights_1" type="FakeQuantize" version="opset1">
			<data levels="255"/>
			<input>
				<port id="0">
					<dim>60</dim>
					<dim>256</dim>
					<dim>1</dim>
					<dim>1</dim>
				</port>
				<port id="1">
					<dim>60</dim>
					<dim>1</dim>
					<dim>1</dim>
					<dim>1</dim>
				</port>
				<port id="2">
					<dim>60</dim>
					<dim>1</dim>
					<dim>1</dim>
					<dim>1</dim>
				</port>
				<port id="3">
					<dim>60</dim>
					<dim>1</dim>
					<dim>1</dim>
					<dim>1</dim>
				</port>
				<port id="4">
					<dim>60</dim>
					<dim>1</dim>
					<dim>1</dim>
					<dim>1</dim>
				</port>
			</input>
			<output>
				<port id="5" precision="FP32">
					<dim>60</dim>
					<dim>256</dim>
					<dim>1</dim>
					<dim>1</dim>
				</port>
			</output>
		</layer>
		<layer id="166" name="landmarks_fc_leye_x_new/WithoutBiases" type="Convolution" version="opset1">
			<data dilations="1,1" output_padding="0,0" pads_begin="0,0" pads_end="0,0" strides="1,1"/>
			<input>
				<port id="0">
					<dim>1</dim>
					<dim>256</dim>
					<dim>1</dim>
					<dim>1</dim>
				</port>
				<port id="1">
					<dim>60</dim>
					<dim>256</dim>
					<dim>1</dim>
					<dim>1</dim>
				</port>
			</input>
			<output>
				<port id="2" precision="FP32">
					<dim>1</dim>
					<dim>60</dim>
					<dim>1</dim>
					<dim>1</dim>
				</port>
			</output>
		</layer>
		<layer id="167" name="landmarks_fc_leye_x_new/Dims4641/copy_const529_const" type="Const" version="opset1">
			<data element_type="f32" offset="6635472" shape="1,60,1,1" size="240"/>
			<output>
				<port id="1" precision="FP32">
					<dim>1</dim>
					<dim>60</dim>
					<dim>1</dim>
					<dim>1</dim>
				</port>
			</output>
		</layer>
		<layer id="168" name="landmarks_fc_leye_x_new" type="Add" version="opset1">
			<input>
				<port id="0">
					<dim>1</dim>
					<dim>60</dim>
					<dim>1</dim>
					<dim>1</dim>
				</port>
				<port id="1">
					<dim>1</dim>
					<dim>60</dim>
					<dim>1</dim>
					<dim>1</dim>
				</port>
			</input>
			<output>
				<port id="2" precision="FP32">
					<dim>1</dim>
					<dim>60</dim>
					<dim>1</dim>
					<dim>1</dim>
				</port>
			</output>
		</layer>
		<layer id="169" name="softmax_landmarks_leye_x" type="SoftMax" version="opset1">
			<data axis="1"/>
			<input>
				<port id="0">
					<dim>1</dim>
					<dim>60</dim>
					<dim>1</dim>
					<dim>1</dim>
				</port>
			</input>
			<output>
				<port id="1" precision="FP32">
					<dim>1</dim>
					<dim>60</dim>
					<dim>1</dim>
					<dim>1</dim>
				</port>
			</output>
		</layer>
		<layer id="170" name="41524156_const" type="Const" version="opset1">
			<data element_type="f32" offset="29656" shape="" size="4"/>
			<output>
				<port id="1" precision="FP32"/>
			</output>
		</layer>
		<layer id="171" name="41534157_const" type="Const" version="opset1">
			<data element_type="f32" offset="6635712" shape="" size="4"/>
			<output>
				<port id="1" precision="FP32"/>
			</output>
		</layer>
		<layer id="172" name="41544158_const" type="Const" version="opset1">
			<data element_type="f32" offset="29656" shape="" size="4"/>
			<output>
				<port id="1" precision="FP32"/>
			</output>
		</layer>
		<layer id="173" name="41554159_const" type="Const" version="opset1">
			<data element_type="f32" offset="6635712" shape="" size="4"/>
			<output>
				<port id="1" precision="FP32"/>
			</output>
		</layer>
		<layer id="174" name="raw_predicts/fq_input_2" type="FakeQuantize" version="opset1">
			<data levels="256"/>
			<input>
				<port id="0">
					<dim>1</dim>
					<dim>60</dim>
					<dim>1</dim>
					<dim>1</dim>
				</port>
				<port id="1"/>
				<port id="2"/>
				<port id="3"/>
				<port id="4"/>
			</input>
			<output>
				<port id="5" precision="FP32">
					<dim>1</dim>
					<dim>60</dim>
					<dim>1</dim>
					<dim>1</dim>
				</port>
			</output>
		</layer>
		<layer id="175" name="403/Output_0/Data__const532_const" type="Const" version="opset1">
			<data element_type="f32" offset="6635716" shape="60,256,1,1" size="61440"/>
			<output>
				<port id="1" precision="FP32">
					<dim>60</dim>
					<dim>256</dim>
					<dim>1</dim>
					<dim>1</dim>
				</port>
			</output>
		</layer>
		<layer id="176" name="20972101_const" type="Const" version="opset1">
			<data element_type="f32" offset="6697156" shape="60,1,1,1" size="240"/>
			<output>
				<port id="1" precision="FP32">
					<dim>60</dim>
					<dim>1</dim>
					<dim>1</dim>
					<dim>1</dim>
				</port>
			</output>
		</layer>
		<layer id="177" name="20982102_const" type="Const" version="opset1">
			<data element_type="f32" offset="6697396" shape="60,1,1,1" size="240"/>
			<output>
				<port id="1" precision="FP32">
					<dim>60</dim>
					<dim>1</dim>
					<dim>1</dim>
					<dim>1</dim>
				</port>
			</output>
		</layer>
		<layer id="178" name="20992103_const" type="Const" version="opset1">
			<data element_type="f32" offset="6697156" shape="60,1,1,1" size="240"/>
			<output>
				<port id="1" precision="FP32">
					<dim>60</dim>
					<dim>1</dim>
					<dim>1</dim>
					<dim>1</dim>
				</port>
			</output>
		</layer>
		<layer id="179" name="21002104_const" type="Const" version="opset1">
			<data element_type="f32" offset="6697396" shape="60,1,1,1" size="240"/>
			<output>
				<port id="1" precision="FP32">
					<dim>60</dim>
					<dim>1</dim>
					<dim>1</dim>
					<dim>1</dim>
				</port>
			</output>
		</layer>
		<layer id="180" name="landmarks_fc_leye_y_new/WithoutBiases/fq_weights_1" type="FakeQuantize" version="opset1">
			<data levels="255"/>
			<input>
				<port id="0">
					<dim>60</dim>
					<dim>256</dim>
					<dim>1</dim>
					<dim>1</dim>
				</port>
				<port id="1">
					<dim>60</dim>
					<dim>1</dim>
					<dim>1</dim>
					<dim>1</dim>
				</port>
				<port id="2">
					<dim>60</dim>
					<dim>1</dim>
					<dim>1</dim>
					<dim>1</dim>
				</port>
				<port id="3">
					<dim>60</dim>
					<dim>1</dim>
					<dim>1</dim>
					<dim>1</dim>
				</port>
				<port id="4">
					<dim>60</dim>
					<dim>1</dim>
					<dim>1</dim>
					<dim>1</dim>
				</port>
			</input>
			<output>
				<port id="5" precision="FP32">
					<dim>60</dim>
					<dim>256</dim>
					<dim>1</dim>
					<dim>1</dim>
				</port>
			</output>
		</layer>
		<layer id="181" name="landmarks_fc_leye_y_new/WithoutBiases" type="Convolution" version="opset1">
			<data dilations="1,1" output_padding="0,0" pads_begin="0,0" pads_end="0,0" strides="1,1"/>
			<input>
				<port id="0">
					<dim>1</dim>
					<dim>256</dim>
					<dim>1</dim>
					<dim>1</dim>
				</port>
				<port id="1">
					<dim>60</dim>
					<dim>256</dim>
					<dim>1</dim>
					<dim>1</dim>
				</port>
			</input>
			<output>
				<port id="2" precision="FP32">
					<dim>1</dim>
					<dim>60</dim>
					<dim>1</dim>
					<dim>1</dim>
				</port>
			</output>
		</layer>
		<layer id="182" name="landmarks_fc_leye_y_new/Dims4809/copy_const534_const" type="Const" version="opset1">
			<data element_type="f32" offset="6697636" shape="1,60,1,1" size="240"/>
			<output>
				<port id="1" precision="FP32">
					<dim>1</dim>
					<dim>60</dim>
					<dim>1</dim>
					<dim>1</dim>
				</port>
			</output>
		</layer>
		<layer id="183" name="landmarks_fc_leye_y_new" type="Add" version="opset1">
			<input>
				<port id="0">
					<dim>1</dim>
					<dim>60</dim>
					<dim>1</dim>
					<dim>1</dim>
				</port>
				<port id="1">
					<dim>1</dim>
					<dim>60</dim>
					<dim>1</dim>
					<dim>1</dim>
				</port>
			</input>
			<output>
				<port id="2" precision="FP32">
					<dim>1</dim>
					<dim>60</dim>
					<dim>1</dim>
					<dim>1</dim>
				</port>
			</output>
		</layer>
		<layer id="184" name="softmax_landmarks_leye_y" type="SoftMax" version="opset1">
			<data axis="1"/>
			<input>
				<port id="0">
					<dim>1</dim>
					<dim>60</dim>
					<dim>1</dim>
					<dim>1</dim>
				</port>
			</input>
			<output>
				<port id="1" precision="FP32">
					<dim>1</dim>
					<dim>60</dim>
					<dim>1</dim>
					<dim>1</dim>
				</port>
			</output>
		</layer>
		<layer id="185" name="42624266_const" type="Const" version="opset1">
			<data element_type="f32" offset="29656" shape="" size="4"/>
			<output>
				<port id="1" precision="FP32"/>
			</output>
		</layer>
		<layer id="186" name="42634267_const" type="Const" version="opset1">
			<data element_type="f32" offset="6697876" shape="" size="4"/>
			<output>
				<port id="1" precision="FP32"/>
			</output>
		</layer>
		<layer id="187" name="42644268_const" type="Const" version="opset1">
			<data element_type="f32" offset="29656" shape="" size="4"/>
			<output>
				<port id="1" precision="FP32"/>
			</output>
		</layer>
		<layer id="188" name="42654269_const" type="Const" version="opset1">
			<data element_type="f32" offset="6697876" shape="" size="4"/>
			<output>
				<port id="1" precision="FP32"/>
			</output>
		</layer>
		<layer id="189" name="raw_predicts/fq_input_3" type="FakeQuantize" version="opset1">
			<data levels="256"/>
			<input>
				<port id="0">
					<dim>1</dim>
					<dim>60</dim>
					<dim>1</dim>
					<dim>1</dim>
				</port>
				<port id="1"/>
				<port id="2"/>
				<port id="3"/>
				<port id="4"/>
			</input>
			<output>
				<port id="5" precision="FP32">
					<dim>1</dim>
					<dim>60</dim>
					<dim>1</dim>
					<dim>1</dim>
				</port>
			</output>
		</layer>
		<layer id="190" name="Mul1_7154/Fused_Mul_84118413_const537_const" type="Const" version="opset1">
			<data element_type="f32" offset="6697880" shape="256,512,1,1" size="524288"/>
			<output>
				<port id="1" precision="FP32">
					<dim>256</dim>
					<dim>512</dim>
					<dim>1</dim>
					<dim>1</dim>
				</port>
			</output>
		</layer>
		<layer id="191" name="14771481_const" type="Const" version="opset1">
			<data element_type="f32" offset="7222168" shape="256,1,1,1" size="1024"/>
			<output>
				<port id="1" precision="FP32">
					<dim>256</dim>
					<dim>1</dim>
					<dim>1</dim>
					<dim>1</dim>
				</port>
			</output>
		</layer>
		<layer id="192" name="14781482_const" type="Const" version="opset1">
			<data element_type="f32" offset="7223192" shape="256,1,1,1" size="1024"/>
			<output>
				<port id="1" precision="FP32">
					<dim>256</dim>
					<dim>1</dim>
					<dim>1</dim>
					<dim>1</dim>
				</port>
			</output>
		</layer>
		<layer id="193" name="14791483_const" type="Const" version="opset1">
			<data element_type="f32" offset="7222168" shape="256,1,1,1" size="1024"/>
			<output>
				<port id="1" precision="FP32">
					<dim>256</dim>
					<dim>1</dim>
					<dim>1</dim>
					<dim>1</dim>
				</port>
			</output>
		</layer>
		<layer id="194" name="14801484_const" type="Const" version="opset1">
			<data element_type="f32" offset="7223192" shape="256,1,1,1" size="1024"/>
			<output>
				<port id="1" precision="FP32">
					<dim>256</dim>
					<dim>1</dim>
					<dim>1</dim>
					<dim>1</dim>
				</port>
			</output>
		</layer>
		<layer id="195" name="landmarks_conv_reye/WithoutBiases/fq_weights_1" type="FakeQuantize" version="opset1">
			<data levels="255"/>
			<input>
				<port id="0">
					<dim>256</dim>
					<dim>512</dim>
					<dim>1</dim>
					<dim>1</dim>
				</port>
				<port id="1">
					<dim>256</dim>
					<dim>1</dim>
					<dim>1</dim>
					<dim>1</dim>
				</port>
				<port id="2">
					<dim>256</dim>
					<dim>1</dim>
					<dim>1</dim>
					<dim>1</dim>
				</port>
				<port id="3">
					<dim>256</dim>
					<dim>1</dim>
					<dim>1</dim>
					<dim>1</dim>
				</port>
				<port id="4">
					<dim>256</dim>
					<dim>1</dim>
					<dim>1</dim>
					<dim>1</dim>
				</port>
			</input>
			<output>
				<port id="5" precision="FP32">
					<dim>256</dim>
					<dim>512</dim>
					<dim>1</dim>
					<dim>1</dim>
				</port>
			</output>
		</layer>
		<layer id="196" name="landmarks_conv_reye/WithoutBiases" type="Convolution" version="opset1">
			<data dilations="1,1" output_padding="0,0" pads_begin="0,0" pads_end="0,0" strides="1,1"/>
			<input>
				<port id="0">
					<dim>1</dim>
					<dim>512</dim>
					<dim>1</dim>
					<dim>1</dim>
				</port>
				<port id="1">
					<dim>256</dim>
					<dim>512</dim>
					<dim>1</dim>
					<dim>1</dim>
				</port>
			</input>
			<output>
				<port id="2" precision="FP32">
					<dim>1</dim>
					<dim>256</dim>
					<dim>1</dim>
					<dim>1</dim>
				</port>
			</output>
		</layer>
		<layer id="197" name="data_add_78337838/copy_const539_const" type="Const" version="opset1">
			<data element_type="f32" offset="7224216" shape="1,256,1,1" size="1024"/>
			<output>
				<port id="1" precision="FP32">
					<dim>1</dim>
					<dim>256</dim>
					<dim>1</dim>
					<dim>1</dim>
				</port>
			</output>
		</layer>
		<layer id="198" name="landmarks_conv_reye/Fused_Add_" type="Add" version="opset1">
			<input>
				<port id="0">
					<dim>1</dim>
					<dim>256</dim>
					<dim>1</dim>
					<dim>1</dim>
				</port>
				<port id="1">
					<dim>1</dim>
					<dim>256</dim>
					<dim>1</dim>
					<dim>1</dim>
				</port>
			</input>
			<output>
				<port id="2" precision="FP32">
					<dim>1</dim>
					<dim>256</dim>
					<dim>1</dim>
					<dim>1</dim>
				</port>
			</output>
		</layer>
		<layer id="199" name="relu_reye" type="ReLU" version="opset1">
			<input>
				<port id="0">
					<dim>1</dim>
					<dim>256</dim>
					<dim>1</dim>
					<dim>1</dim>
				</port>
			</input>
			<output>
				<port id="1" precision="FP32">
					<dim>1</dim>
					<dim>256</dim>
					<dim>1</dim>
					<dim>1</dim>
				</port>
			</output>
		</layer>
		<layer id="200" name="24372441_const" type="Const" version="opset1">
			<data element_type="f32" offset="29656" shape="" size="4"/>
			<output>
				<port id="1" precision="FP32"/>
			</output>
		</layer>
		<layer id="201" name="24382442_const" type="Const" version="opset1">
			<data element_type="f32" offset="7225240" shape="" size="4"/>
			<output>
				<port id="1" precision="FP32"/>
			</output>
		</layer>
		<layer id="202" name="24392443_const" type="Const" version="opset1">
			<data element_type="f32" offset="29656" shape="" size="4"/>
			<output>
				<port id="1" precision="FP32"/>
			</output>
		</layer>
		<layer id="203" name="24402444_const" type="Const" version="opset1">
			<data element_type="f32" offset="7225240" shape="" size="4"/>
			<output>
				<port id="1" precision="FP32"/>
			</output>
		</layer>
		<layer id="204" name="landmarks_fc_reye_corner_x_new/WithoutBiases/fq_input_0" type="FakeQuantize" version="opset1">
			<data levels="256"/>
			<input>
				<port id="0">
					<dim>1</dim>
					<dim>256</dim>
					<dim>1</dim>
					<dim>1</dim>
				</port>
				<port id="1"/>
				<port id="2"/>
				<port id="3"/>
				<port id="4"/>
			</input>
			<output>
				<port id="5" precision="FP32">
					<dim>1</dim>
					<dim>256</dim>
					<dim>1</dim>
					<dim>1</dim>
				</port>
			</output>
		</layer>
		<layer id="205" name="375/Output_0/Data__const542_const" type="Const" version="opset1">
			<data element_type="f32" offset="7225244" shape="60,256,1,1" size="61440"/>
			<output>
				<port id="1" precision="FP32">
					<dim>60</dim>
					<dim>256</dim>
					<dim>1</dim>
					<dim>1</dim>
				</port>
			</output>
		</layer>
		<layer id="206" name="26872691_const" type="Const" version="opset1">
			<data element_type="f32" offset="7286684" shape="60,1,1,1" size="240"/>
			<output>
				<port id="1" precision="FP32">
					<dim>60</dim>
					<dim>1</dim>
					<dim>1</dim>
					<dim>1</dim>
				</port>
			</output>
		</layer>
		<layer id="207" name="26882692_const" type="Const" version="opset1">
			<data element_type="f32" offset="7286924" shape="60,1,1,1" size="240"/>
			<output>
				<port id="1" precision="FP32">
					<dim>60</dim>
					<dim>1</dim>
					<dim>1</dim>
					<dim>1</dim>
				</port>
			</output>
		</layer>
		<layer id="208" name="26892693_const" type="Const" version="opset1">
			<data element_type="f32" offset="7286684" shape="60,1,1,1" size="240"/>
			<output>
				<port id="1" precision="FP32">
					<dim>60</dim>
					<dim>1</dim>
					<dim>1</dim>
					<dim>1</dim>
				</port>
			</output>
		</layer>
		<layer id="209" name="26902694_const" type="Const" version="opset1">
			<data element_type="f32" offset="7286924" shape="60,1,1,1" size="240"/>
			<output>
				<port id="1" precision="FP32">
					<dim>60</dim>
					<dim>1</dim>
					<dim>1</dim>
					<dim>1</dim>
				</port>
			</output>
		</layer>
		<layer id="210" name="landmarks_fc_reye_x_new/WithoutBiases/fq_weights_1" type="FakeQuantize" version="opset1">
			<data levels="255"/>
			<input>
				<port id="0">
					<dim>60</dim>
					<dim>256</dim>
					<dim>1</dim>
					<dim>1</dim>
				</port>
				<port id="1">
					<dim>60</dim>
					<dim>1</dim>
					<dim>1</dim>
					<dim>1</dim>
				</port>
				<port id="2">
					<dim>60</dim>
					<dim>1</dim>
					<dim>1</dim>
					<dim>1</dim>
				</port>
				<port id="3">
					<dim>60</dim>
					<dim>1</dim>
					<dim>1</dim>
					<dim>1</dim>
				</port>
				<port id="4">
					<dim>60</dim>
					<dim>1</dim>
					<dim>1</dim>
					<dim>1</dim>
				</port>
			</input>
			<output>
				<port id="5" precision="FP32">
					<dim>60</dim>
					<dim>256</dim>
					<dim>1</dim>
					<dim>1</dim>
				</port>
			</output>
		</layer>
		<layer id="211" name="landmarks_fc_reye_x_new/WithoutBiases" type="Convolution" version="opset1">
			<data dilations="1,1" output_padding="0,0" pads_begin="0,0" pads_end="0,0" strides="1,1"/>
			<input>
				<port id="0">
					<dim>1</dim>
					<dim>256</dim>
					<dim>1</dim>
					<dim>1</dim>
				</port>
				<port id="1">
					<dim>60</dim>
					<dim>256</dim>
					<dim>1</dim>
					<dim>1</dim>
				</port>
			</input>
			<output>
				<port id="2" precision="FP32">
					<dim>1</dim>
					<dim>60</dim>
					<dim>1</dim>
					<dim>1</dim>
				</port>
			</output>
		</layer>
		<layer id="212" name="landmarks_fc_reye_x_new/Dims4791/copy_const544_const" type="Const" version="opset1">
			<data element_type="f32" offset="7287164" shape="1,60,1,1" size="240"/>
			<output>
				<port id="1" precision="FP32">
					<dim>1</dim>
					<dim>60</dim>
					<dim>1</dim>
					<dim>1</dim>
				</port>
			</output>
		</layer>
		<layer id="213" name="landmarks_fc_reye_x_new" type="Add" version="opset1">
			<input>
				<port id="0">
					<dim>1</dim>
					<dim>60</dim>
					<dim>1</dim>
					<dim>1</dim>
				</port>
				<port id="1">
					<dim>1</dim>
					<dim>60</dim>
					<dim>1</dim>
					<dim>1</dim>
				</port>
			</input>
			<output>
				<port id="2" precision="FP32">
					<dim>1</dim>
					<dim>60</dim>
					<dim>1</dim>
					<dim>1</dim>
				</port>
			</output>
		</layer>
		<layer id="214" name="softmax_landmarks_reye_x" type="SoftMax" version="opset1">
			<data axis="1"/>
			<input>
				<port id="0">
					<dim>1</dim>
					<dim>60</dim>
					<dim>1</dim>
					<dim>1</dim>
				</port>
			</input>
			<output>
				<port id="1" precision="FP32">
					<dim>1</dim>
					<dim>60</dim>
					<dim>1</dim>
					<dim>1</dim>
				</port>
			</output>
		</layer>
		<layer id="215" name="43724376_const" type="Const" version="opset1">
			<data element_type="f32" offset="29656" shape="" size="4"/>
			<output>
				<port id="1" precision="FP32"/>
			</output>
		</layer>
		<layer id="216" name="43734377_const" type="Const" version="opset1">
			<data element_type="f32" offset="7287404" shape="" size="4"/>
			<output>
				<port id="1" precision="FP32"/>
			</output>
		</layer>
		<layer id="217" name="43744378_const" type="Const" version="opset1">
			<data element_type="f32" offset="29656" shape="" size="4"/>
			<output>
				<port id="1" precision="FP32"/>
			</output>
		</layer>
		<layer id="218" name="43754379_const" type="Const" version="opset1">
			<data element_type="f32" offset="7287404" shape="" size="4"/>
			<output>
				<port id="1" precision="FP32"/>
			</output>
		</layer>
		<layer id="219" name="raw_predicts/fq_input_4" type="FakeQuantize" version="opset1">
			<data levels="256"/>
			<input>
				<port id="0">
					<dim>1</dim>
					<dim>60</dim>
					<dim>1</dim>
					<dim>1</dim>
				</port>
				<port id="1"/>
				<port id="2"/>
				<port id="3"/>
				<port id="4"/>
			</input>
			<output>
				<port id="5" precision="FP32">
					<dim>1</dim>
					<dim>60</dim>
					<dim>1</dim>
					<dim>1</dim>
				</port>
			</output>
		</layer>
		<layer id="220" name="237/Output_0/Data__const547_const" type="Const" version="opset1">
			<data element_type="f32" offset="7287408" shape="60,256,1,1" size="61440"/>
			<output>
				<port id="1" precision="FP32">
					<dim>60</dim>
					<dim>256</dim>
					<dim>1</dim>
					<dim>1</dim>
				</port>
			</output>
		</layer>
		<layer id="221" name="30273031_const" type="Const" version="opset1">
			<data element_type="f32" offset="7348848" shape="60,1,1,1" size="240"/>
			<output>
				<port id="1" precision="FP32">
					<dim>60</dim>
					<dim>1</dim>
					<dim>1</dim>
					<dim>1</dim>
				</port>
			</output>
		</layer>
		<layer id="222" name="30283032_const" type="Const" version="opset1">
			<data element_type="f32" offset="7349088" shape="60,1,1,1" size="240"/>
			<output>
				<port id="1" precision="FP32">
					<dim>60</dim>
					<dim>1</dim>
					<dim>1</dim>
					<dim>1</dim>
				</port>
			</output>
		</layer>
		<layer id="223" name="30293033_const" type="Const" version="opset1">
			<data element_type="f32" offset="7348848" shape="60,1,1,1" size="240"/>
			<output>
				<port id="1" precision="FP32">
					<dim>60</dim>
					<dim>1</dim>
					<dim>1</dim>
					<dim>1</dim>
				</port>
			</output>
		</layer>
		<layer id="224" name="30303034_const" type="Const" version="opset1">
			<data element_type="f32" offset="7349088" shape="60,1,1,1" size="240"/>
			<output>
				<port id="1" precision="FP32">
					<dim>60</dim>
					<dim>1</dim>
					<dim>1</dim>
					<dim>1</dim>
				</port>
			</output>
		</layer>
		<layer id="225" name="landmarks_fc_reye_y_new/WithoutBiases/fq_weights_1" type="FakeQuantize" version="opset1">
			<data levels="255"/>
			<input>
				<port id="0">
					<dim>60</dim>
					<dim>256</dim>
					<dim>1</dim>
					<dim>1</dim>
				</port>
				<port id="1">
					<dim>60</dim>
					<dim>1</dim>
					<dim>1</dim>
					<dim>1</dim>
				</port>
				<port id="2">
					<dim>60</dim>
					<dim>1</dim>
					<dim>1</dim>
					<dim>1</dim>
				</port>
				<port id="3">
					<dim>60</dim>
					<dim>1</dim>
					<dim>1</dim>
					<dim>1</dim>
				</port>
				<port id="4">
					<dim>60</dim>
					<dim>1</dim>
					<dim>1</dim>
					<dim>1</dim>
				</port>
			</input>
			<output>
				<port id="5" precision="FP32">
					<dim>60</dim>
					<dim>256</dim>
					<dim>1</dim>
					<dim>1</dim>
				</port>
			</output>
		</layer>
		<layer id="226" name="landmarks_fc_reye_y_new/WithoutBiases" type="Convolution" version="opset1">
			<data dilations="1,1" output_padding="0,0" pads_begin="0,0" pads_end="0,0" strides="1,1"/>
			<input>
				<port id="0">
					<dim>1</dim>
					<dim>256</dim>
					<dim>1</dim>
					<dim>1</dim>
				</port>
				<port id="1">
					<dim>60</dim>
					<dim>256</dim>
					<dim>1</dim>
					<dim>1</dim>
				</port>
			</input>
			<output>
				<port id="2" precision="FP32">
					<dim>1</dim>
					<dim>60</dim>
					<dim>1</dim>
					<dim>1</dim>
				</port>
			</output>
		</layer>
		<layer id="227" name="landmarks_fc_reye_y_new/Dims4737/copy_const549_const" type="Const" version="opset1">
			<data element_type="f32" offset="7349328" shape="1,60,1,1" size="240"/>
			<output>
				<port id="1" precision="FP32">
					<dim>1</dim>
					<dim>60</dim>
					<dim>1</dim>
					<dim>1</dim>
				</port>
			</output>
		</layer>
		<layer id="228" name="landmarks_fc_reye_y_new" type="Add" version="opset1">
			<input>
				<port id="0">
					<dim>1</dim>
					<dim>60</dim>
					<dim>1</dim>
					<dim>1</dim>
				</port>
				<port id="1">
					<dim>1</dim>
					<dim>60</dim>
					<dim>1</dim>
					<dim>1</dim>
				</port>
			</input>
			<output>
				<port id="2" precision="FP32">
					<dim>1</dim>
					<dim>60</dim>
					<dim>1</dim>
					<dim>1</dim>
				</port>
			</output>
		</layer>
		<layer id="229" name="softmax_landmarks_reye_y" type="SoftMax" version="opset1">
			<data axis="1"/>
			<input>
				<port id="0">
					<dim>1</dim>
					<dim>60</dim>
					<dim>1</dim>
					<dim>1</dim>
				</port>
			</input>
			<output>
				<port id="1" precision="FP32">
					<dim>1</dim>
					<dim>60</dim>
					<dim>1</dim>
					<dim>1</dim>
				</port>
			</output>
		</layer>
		<layer id="230" name="44824486_const" type="Const" version="opset1">
			<data element_type="f32" offset="29656" shape="" size="4"/>
			<output>
				<port id="1" precision="FP32"/>
			</output>
		</layer>
		<layer id="231" name="44834487_const" type="Const" version="opset1">
			<data element_type="f32" offset="7349568" shape="" size="4"/>
			<output>
				<port id="1" precision="FP32"/>
			</output>
		</layer>
		<layer id="232" name="44844488_const" type="Const" version="opset1">
			<data element_type="f32" offset="29656" shape="" size="4"/>
			<output>
				<port id="1" precision="FP32"/>
			</output>
		</layer>
		<layer id="233" name="44854489_const" type="Const" version="opset1">
			<data element_type="f32" offset="7349568" shape="" size="4"/>
			<output>
				<port id="1" precision="FP32"/>
			</output>
		</layer>
		<layer id="234" name="raw_predicts/fq_input_5" type="FakeQuantize" version="opset1">
			<data levels="256"/>
			<input>
				<port id="0">
					<dim>1</dim>
					<dim>60</dim>
					<dim>1</dim>
					<dim>1</dim>
				</port>
				<port id="1"/>
				<port id="2"/>
				<port id="3"/>
				<port id="4"/>
			</input>
			<output>
				<port id="5" precision="FP32">
					<dim>1</dim>
					<dim>60</dim>
					<dim>1</dim>
					<dim>1</dim>
				</port>
			</output>
		</layer>
		<layer id="235" name="433/Output_0/Data__const552_const" type="Const" version="opset1">
			<data element_type="f32" offset="7349572" shape="60,256,1,1" size="61440"/>
			<output>
				<port id="1" precision="FP32">
					<dim>60</dim>
					<dim>256</dim>
					<dim>1</dim>
					<dim>1</dim>
				</port>
			</output>
		</layer>
		<layer id="236" name="24472451_const" type="Const" version="opset1">
			<data element_type="f32" offset="7411012" shape="60,1,1,1" size="240"/>
			<output>
				<port id="1" precision="FP32">
					<dim>60</dim>
					<dim>1</dim>
					<dim>1</dim>
					<dim>1</dim>
				</port>
			</output>
		</layer>
		<layer id="237" name="24482452_const" type="Const" version="opset1">
			<data element_type="f32" offset="7411252" shape="60,1,1,1" size="240"/>
			<output>
				<port id="1" precision="FP32">
					<dim>60</dim>
					<dim>1</dim>
					<dim>1</dim>
					<dim>1</dim>
				</port>
			</output>
		</layer>
		<layer id="238" name="24492453_const" type="Const" version="opset1">
			<data element_type="f32" offset="7411012" shape="60,1,1,1" size="240"/>
			<output>
				<port id="1" precision="FP32">
					<dim>60</dim>
					<dim>1</dim>
					<dim>1</dim>
					<dim>1</dim>
				</port>
			</output>
		</layer>
		<layer id="239" name="24502454_const" type="Const" version="opset1">
			<data element_type="f32" offset="7411252" shape="60,1,1,1" size="240"/>
			<output>
				<port id="1" precision="FP32">
					<dim>60</dim>
					<dim>1</dim>
					<dim>1</dim>
					<dim>1</dim>
				</port>
			</output>
		</layer>
		<layer id="240" name="landmarks_fc_reye_corner_x_new/WithoutBiases/fq_weights_1" type="FakeQuantize" version="opset1">
			<data levels="255"/>
			<input>
				<port id="0">
					<dim>60</dim>
					<dim>256</dim>
					<dim>1</dim>
					<dim>1</dim>
				</port>
				<port id="1">
					<dim>60</dim>
					<dim>1</dim>
					<dim>1</dim>
					<dim>1</dim>
				</port>
				<port id="2">
					<dim>60</dim>
					<dim>1</dim>
					<dim>1</dim>
					<dim>1</dim>
				</port>
				<port id="3">
					<dim>60</dim>
					<dim>1</dim>
					<dim>1</dim>
					<dim>1</dim>
				</port>
				<port id="4">
					<dim>60</dim>
					<dim>1</dim>
					<dim>1</dim>
					<dim>1</dim>
				</port>
			</input>
			<output>
				<port id="5" precision="FP32">
					<dim>60</dim>
					<dim>256</dim>
					<dim>1</dim>
					<dim>1</dim>
				</port>
			</output>
		</layer>
		<layer id="241" name="landmarks_fc_reye_corner_x_new/WithoutBiases" type="Convolution" version="opset1">
			<data dilations="1,1" output_padding="0,0" pads_begin="0,0" pads_end="0,0" strides="1,1"/>
			<input>
				<port id="0">
					<dim>1</dim>
					<dim>256</dim>
					<dim>1</dim>
					<dim>1</dim>
				</port>
				<port id="1">
					<dim>60</dim>
					<dim>256</dim>
					<dim>1</dim>
					<dim>1</dim>
				</port>
			</input>
			<output>
				<port id="2" precision="FP32">
					<dim>1</dim>
					<dim>60</dim>
					<dim>1</dim>
					<dim>1</dim>
				</port>
			</output>
		</layer>
		<layer id="242" name="landmarks_fc_reye_corner_x_new/Dims5109/copy_const554_const" type="Const" version="opset1">
			<data element_type="f32" offset="7411492" shape="1,60,1,1" size="240"/>
			<output>
				<port id="1" precision="FP32">
					<dim>1</dim>
					<dim>60</dim>
					<dim>1</dim>
					<dim>1</dim>
				</port>
			</output>
		</layer>
		<layer id="243" name="landmarks_fc_reye_corner_x_new" type="Add" version="opset1">
			<input>
				<port id="0">
					<dim>1</dim>
					<dim>60</dim>
					<dim>1</dim>
					<dim>1</dim>
				</port>
				<port id="1">
					<dim>1</dim>
					<dim>60</dim>
					<dim>1</dim>
					<dim>1</dim>
				</port>
			</input>
			<output>
				<port id="2" precision="FP32">
					<dim>1</dim>
					<dim>60</dim>
					<dim>1</dim>
					<dim>1</dim>
				</port>
			</output>
		</layer>
		<layer id="244" name="softmax_landmarks_reye_corner_x" type="SoftMax" version="opset1">
			<data axis="1"/>
			<input>
				<port id="0">
					<dim>1</dim>
					<dim>60</dim>
					<dim>1</dim>
					<dim>1</dim>
				</port>
			</input>
			<output>
				<port id="1" precision="FP32">
					<dim>1</dim>
					<dim>60</dim>
					<dim>1</dim>
					<dim>1</dim>
				</port>
			</output>
		</layer>
		<layer id="245" name="45924596_const" type="Const" version="opset1">
			<data element_type="f32" offset="29656" shape="" size="4"/>
			<output>
				<port id="1" precision="FP32"/>
			</output>
		</layer>
		<layer id="246" name="45934597_const" type="Const" version="opset1">
			<data element_type="f32" offset="7411732" shape="" size="4"/>
			<output>
				<port id="1" precision="FP32"/>
			</output>
		</layer>
		<layer id="247" name="45944598_const" type="Const" version="opset1">
			<data element_type="f32" offset="29656" shape="" size="4"/>
			<output>
				<port id="1" precision="FP32"/>
			</output>
		</layer>
		<layer id="248" name="45954599_const" type="Const" version="opset1">
			<data element_type="f32" offset="7411732" shape="" size="4"/>
			<output>
				<port id="1" precision="FP32"/>
			</output>
		</layer>
		<layer id="249" name="raw_predicts/fq_input_6" type="FakeQuantize" version="opset1">
			<data levels="256"/>
			<input>
				<port id="0">
					<dim>1</dim>
					<dim>60</dim>
					<dim>1</dim>
					<dim>1</dim>
				</port>
				<port id="1"/>
				<port id="2"/>
				<port id="3"/>
				<port id="4"/>
			</input>
			<output>
				<port id="5" precision="FP32">
					<dim>1</dim>
					<dim>60</dim>
					<dim>1</dim>
					<dim>1</dim>
				</port>
			</output>
		</layer>
		<layer id="250" name="285/Output_0/Data__const557_const" type="Const" version="opset1">
			<data element_type="f32" offset="7411736" shape="60,256,1,1" size="61440"/>
			<output>
				<port id="1" precision="FP32">
					<dim>60</dim>
					<dim>256</dim>
					<dim>1</dim>
					<dim>1</dim>
				</port>
			</output>
		</layer>
		<layer id="251" name="24072411_const" type="Const" version="opset1">
			<data element_type="f32" offset="7473176" shape="60,1,1,1" size="240"/>
			<output>
				<port id="1" precision="FP32">
					<dim>60</dim>
					<dim>1</dim>
					<dim>1</dim>
					<dim>1</dim>
				</port>
			</output>
		</layer>
		<layer id="252" name="24082412_const" type="Const" version="opset1">
			<data element_type="f32" offset="7473416" shape="60,1,1,1" size="240"/>
			<output>
				<port id="1" precision="FP32">
					<dim>60</dim>
					<dim>1</dim>
					<dim>1</dim>
					<dim>1</dim>
				</port>
			</output>
		</layer>
		<layer id="253" name="24092413_const" type="Const" version="opset1">
			<data element_type="f32" offset="7473176" shape="60,1,1,1" size="240"/>
			<output>
				<port id="1" precision="FP32">
					<dim>60</dim>
					<dim>1</dim>
					<dim>1</dim>
					<dim>1</dim>
				</port>
			</output>
		</layer>
		<layer id="254" name="24102414_const" type="Const" version="opset1">
			<data element_type="f32" offset="7473416" shape="60,1,1,1" size="240"/>
			<output>
				<port id="1" precision="FP32">
					<dim>60</dim>
					<dim>1</dim>
					<dim>1</dim>
					<dim>1</dim>
				</port>
			</output>
		</layer>
		<layer id="255" name="landmarks_fc_reye_corner_y_new/WithoutBiases/fq_weights_1" type="FakeQuantize" version="opset1">
			<data levels="255"/>
			<input>
				<port id="0">
					<dim>60</dim>
					<dim>256</dim>
					<dim>1</dim>
					<dim>1</dim>
				</port>
				<port id="1">
					<dim>60</dim>
					<dim>1</dim>
					<dim>1</dim>
					<dim>1</dim>
				</port>
				<port id="2">
					<dim>60</dim>
					<dim>1</dim>
					<dim>1</dim>
					<dim>1</dim>
				</port>
				<port id="3">
					<dim>60</dim>
					<dim>1</dim>
					<dim>1</dim>
					<dim>1</dim>
				</port>
				<port id="4">
					<dim>60</dim>
					<dim>1</dim>
					<dim>1</dim>
					<dim>1</dim>
				</port>
			</input>
			<output>
				<port id="5" precision="FP32">
					<dim>60</dim>
					<dim>256</dim>
					<dim>1</dim>
					<dim>1</dim>
				</port>
			</output>
		</layer>
		<layer id="256" name="landmarks_fc_reye_corner_y_new/WithoutBiases" type="Convolution" version="opset1">
			<data dilations="1,1" output_padding="0,0" pads_begin="0,0" pads_end="0,0" strides="1,1"/>
			<input>
				<port id="0">
					<dim>1</dim>
					<dim>256</dim>
					<dim>1</dim>
					<dim>1</dim>
				</port>
				<port id="1">
					<dim>60</dim>
					<dim>256</dim>
					<dim>1</dim>
					<dim>1</dim>
				</port>
			</input>
			<output>
				<port id="2" precision="FP32">
					<dim>1</dim>
					<dim>60</dim>
					<dim>1</dim>
					<dim>1</dim>
				</port>
			</output>
		</layer>
		<layer id="257" name="landmarks_fc_reye_corner_y_new/Dims5025/copy_const559_const" type="Const" version="opset1">
			<data element_type="f32" offset="7473656" shape="1,60,1,1" size="240"/>
			<output>
				<port id="1" precision="FP32">
					<dim>1</dim>
					<dim>60</dim>
					<dim>1</dim>
					<dim>1</dim>
				</port>
			</output>
		</layer>
		<layer id="258" name="landmarks_fc_reye_corner_y_new" type="Add" version="opset1">
			<input>
				<port id="0">
					<dim>1</dim>
					<dim>60</dim>
					<dim>1</dim>
					<dim>1</dim>
				</port>
				<port id="1">
					<dim>1</dim>
					<dim>60</dim>
					<dim>1</dim>
					<dim>1</dim>
				</port>
			</input>
			<output>
				<port id="2" precision="FP32">
					<dim>1</dim>
					<dim>60</dim>
					<dim>1</dim>
					<dim>1</dim>
				</port>
			</output>
		</layer>
		<layer id="259" name="softmax_landmarks_reye_corner_y" type="SoftMax" version="opset1">
			<data axis="1"/>
			<input>
				<port id="0">
					<dim>1</dim>
					<dim>60</dim>
					<dim>1</dim>
					<dim>1</dim>
				</port>
			</input>
			<output>
				<port id="1" precision="FP32">
					<dim>1</dim>
					<dim>60</dim>
					<dim>1</dim>
					<dim>1</dim>
				</port>
			</output>
		</layer>
		<layer id="260" name="47024706_const" type="Const" version="opset1">
			<data element_type="f32" offset="29656" shape="" size="4"/>
			<output>
				<port id="1" precision="FP32"/>
			</output>
		</layer>
		<layer id="261" name="47034707_const" type="Const" version="opset1">
			<data element_type="f32" offset="7473896" shape="" size="4"/>
			<output>
				<port id="1" precision="FP32"/>
			</output>
		</layer>
		<layer id="262" name="47044708_const" type="Const" version="opset1">
			<data element_type="f32" offset="29656" shape="" size="4"/>
			<output>
				<port id="1" precision="FP32"/>
			</output>
		</layer>
		<layer id="263" name="47054709_const" type="Const" version="opset1">
			<data element_type="f32" offset="7473896" shape="" size="4"/>
			<output>
				<port id="1" precision="FP32"/>
			</output>
		</layer>
		<layer id="264" name="raw_predicts/fq_input_7" type="FakeQuantize" version="opset1">
			<data levels="256"/>
			<input>
				<port id="0">
					<dim>1</dim>
					<dim>60</dim>
					<dim>1</dim>
					<dim>1</dim>
				</port>
				<port id="1"/>
				<port id="2"/>
				<port id="3"/>
				<port id="4"/>
			</input>
			<output>
				<port id="5" precision="FP32">
					<dim>1</dim>
					<dim>60</dim>
					<dim>1</dim>
					<dim>1</dim>
				</port>
			</output>
		</layer>
		<layer id="265" name="Mul1_7166/Fused_Mul_84078409_const562_const" type="Const" version="opset1">
			<data element_type="f32" offset="7473900" shape="256,512,1,1" size="524288"/>
			<output>
				<port id="1" precision="FP32">
					<dim>256</dim>
					<dim>512</dim>
					<dim>1</dim>
					<dim>1</dim>
				</port>
			</output>
		</layer>
		<layer id="266" name="23072311_const" type="Const" version="opset1">
			<data element_type="f32" offset="7998188" shape="256,1,1,1" size="1024"/>
			<output>
				<port id="1" precision="FP32">
					<dim>256</dim>
					<dim>1</dim>
					<dim>1</dim>
					<dim>1</dim>
				</port>
			</output>
		</layer>
		<layer id="267" name="23082312_const" type="Const" version="opset1">
			<data element_type="f32" offset="7999212" shape="256,1,1,1" size="1024"/>
			<output>
				<port id="1" precision="FP32">
					<dim>256</dim>
					<dim>1</dim>
					<dim>1</dim>
					<dim>1</dim>
				</port>
			</output>
		</layer>
		<layer id="268" name="23092313_const" type="Const" version="opset1">
			<data element_type="f32" offset="7998188" shape="256,1,1,1" size="1024"/>
			<output>
				<port id="1" precision="FP32">
					<dim>256</dim>
					<dim>1</dim>
					<dim>1</dim>
					<dim>1</dim>
				</port>
			</output>
		</layer>
		<layer id="269" name="23102314_const" type="Const" version="opset1">
			<data element_type="f32" offset="7999212" shape="256,1,1,1" size="1024"/>
			<output>
				<port id="1" precision="FP32">
					<dim>256</dim>
					<dim>1</dim>
					<dim>1</dim>
					<dim>1</dim>
				</port>
			</output>
		</layer>
		<layer id="270" name="landmarks_conv_lnose/WithoutBiases/fq_weights_1" type="FakeQuantize" version="opset1">
			<data levels="255"/>
			<input>
				<port id="0">
					<dim>256</dim>
					<dim>512</dim>
					<dim>1</dim>
					<dim>1</dim>
				</port>
				<port id="1">
					<dim>256</dim>
					<dim>1</dim>
					<dim>1</dim>
					<dim>1</dim>
				</port>
				<port id="2">
					<dim>256</dim>
					<dim>1</dim>
					<dim>1</dim>
					<dim>1</dim>
				</port>
				<port id="3">
					<dim>256</dim>
					<dim>1</dim>
					<dim>1</dim>
					<dim>1</dim>
				</port>
				<port id="4">
					<dim>256</dim>
					<dim>1</dim>
					<dim>1</dim>
					<dim>1</dim>
				</port>
			</input>
			<output>
				<port id="5" precision="FP32">
					<dim>256</dim>
					<dim>512</dim>
					<dim>1</dim>
					<dim>1</dim>
				</port>
			</output>
		</layer>
		<layer id="271" name="landmarks_conv_lnose/WithoutBiases" type="Convolution" version="opset1">
			<data dilations="1,1" output_padding="0,0" pads_begin="0,0" pads_end="0,0" strides="1,1"/>
			<input>
				<port id="0">
					<dim>1</dim>
					<dim>512</dim>
					<dim>1</dim>
					<dim>1</dim>
				</port>
				<port id="1">
					<dim>256</dim>
					<dim>512</dim>
					<dim>1</dim>
					<dim>1</dim>
				</port>
			</input>
			<output>
				<port id="2" precision="FP32">
					<dim>1</dim>
					<dim>256</dim>
					<dim>1</dim>
					<dim>1</dim>
				</port>
			</output>
		</layer>
		<layer id="272" name="data_add_78257830/copy_const564_const" type="Const" version="opset1">
			<data element_type="f32" offset="8000236" shape="1,256,1,1" size="1024"/>
			<output>
				<port id="1" precision="FP32">
					<dim>1</dim>
					<dim>256</dim>
					<dim>1</dim>
					<dim>1</dim>
				</port>
			</output>
		</layer>
		<layer id="273" name="landmarks_conv_lnose/Fused_Add_" type="Add" version="opset1">
			<input>
				<port id="0">
					<dim>1</dim>
					<dim>256</dim>
					<dim>1</dim>
					<dim>1</dim>
				</port>
				<port id="1">
					<dim>1</dim>
					<dim>256</dim>
					<dim>1</dim>
					<dim>1</dim>
				</port>
			</input>
			<output>
				<port id="2" precision="FP32">
					<dim>1</dim>
					<dim>256</dim>
					<dim>1</dim>
					<dim>1</dim>
				</port>
			</output>
		</layer>
		<layer id="274" name="relu_lnose" type="ReLU" version="opset1">
			<input>
				<port id="0">
					<dim>1</dim>
					<dim>256</dim>
					<dim>1</dim>
					<dim>1</dim>
				</port>
			</input>
			<output>
				<port id="1" precision="FP32">
					<dim>1</dim>
					<dim>256</dim>
					<dim>1</dim>
					<dim>1</dim>
				</port>
			</output>
		</layer>
		<layer id="275" name="14271431_const" type="Const" version="opset1">
			<data element_type="f32" offset="29656" shape="" size="4"/>
			<output>
				<port id="1" precision="FP32"/>
			</output>
		</layer>
		<layer id="276" name="14281432_const" type="Const" version="opset1">
			<data element_type="f32" offset="8001260" shape="" size="4"/>
			<output>
				<port id="1" precision="FP32"/>
			</output>
		</layer>
		<layer id="277" name="14291433_const" type="Const" version="opset1">
			<data element_type="f32" offset="29656" shape="" size="4"/>
			<output>
				<port id="1" precision="FP32"/>
			</output>
		</layer>
		<layer id="278" name="14301434_const" type="Const" version="opset1">
			<data element_type="f32" offset="8001260" shape="" size="4"/>
			<output>
				<port id="1" precision="FP32"/>
			</output>
		</layer>
		<layer id="279" name="landmarks_fc_lnose_x_new/WithoutBiases/fq_input_0" type="FakeQuantize" version="opset1">
			<data levels="256"/>
			<input>
				<port id="0">
					<dim>1</dim>
					<dim>256</dim>
					<dim>1</dim>
					<dim>1</dim>
				</port>
				<port id="1"/>
				<port id="2"/>
				<port id="3"/>
				<port id="4"/>
			</input>
			<output>
				<port id="5" precision="FP32">
					<dim>1</dim>
					<dim>256</dim>
					<dim>1</dim>
					<dim>1</dim>
				</port>
			</output>
		</layer>
		<layer id="280" name="271/Output_0/Data__const567_const" type="Const" version="opset1">
			<data element_type="f32" offset="8001264" shape="60,256,1,1" size="61440"/>
			<output>
				<port id="1" precision="FP32">
					<dim>60</dim>
					<dim>256</dim>
					<dim>1</dim>
					<dim>1</dim>
				</port>
			</output>
		</layer>
		<layer id="281" name="22872291_const" type="Const" version="opset1">
			<data element_type="f32" offset="8062704" shape="60,1,1,1" size="240"/>
			<output>
				<port id="1" precision="FP32">
					<dim>60</dim>
					<dim>1</dim>
					<dim>1</dim>
					<dim>1</dim>
				</port>
			</output>
		</layer>
		<layer id="282" name="22882292_const" type="Const" version="opset1">
			<data element_type="f32" offset="8062944" shape="60,1,1,1" size="240"/>
			<output>
				<port id="1" precision="FP32">
					<dim>60</dim>
					<dim>1</dim>
					<dim>1</dim>
					<dim>1</dim>
				</port>
			</output>
		</layer>
		<layer id="283" name="22892293_const" type="Const" version="opset1">
			<data element_type="f32" offset="8062704" shape="60,1,1,1" size="240"/>
			<output>
				<port id="1" precision="FP32">
					<dim>60</dim>
					<dim>1</dim>
					<dim>1</dim>
					<dim>1</dim>
				</port>
			</output>
		</layer>
		<layer id="284" name="22902294_const" type="Const" version="opset1">
			<data element_type="f32" offset="8062944" shape="60,1,1,1" size="240"/>
			<output>
				<port id="1" precision="FP32">
					<dim>60</dim>
					<dim>1</dim>
					<dim>1</dim>
					<dim>1</dim>
				</port>
			</output>
		</layer>
		<layer id="285" name="landmarks_fc_nose_bottom_x_new/WithoutBiases/fq_weights_1" type="FakeQuantize" version="opset1">
			<data levels="255"/>
			<input>
				<port id="0">
					<dim>60</dim>
					<dim>256</dim>
					<dim>1</dim>
					<dim>1</dim>
				</port>
				<port id="1">
					<dim>60</dim>
					<dim>1</dim>
					<dim>1</dim>
					<dim>1</dim>
				</port>
				<port id="2">
					<dim>60</dim>
					<dim>1</dim>
					<dim>1</dim>
					<dim>1</dim>
				</port>
				<port id="3">
					<dim>60</dim>
					<dim>1</dim>
					<dim>1</dim>
					<dim>1</dim>
				</port>
				<port id="4">
					<dim>60</dim>
					<dim>1</dim>
					<dim>1</dim>
					<dim>1</dim>
				</port>
			</input>
			<output>
				<port id="5" precision="FP32">
					<dim>60</dim>
					<dim>256</dim>
					<dim>1</dim>
					<dim>1</dim>
				</port>
			</output>
		</layer>
		<layer id="286" name="landmarks_fc_nose_bottom_x_new/WithoutBiases" type="Convolution" version="opset1">
			<data dilations="1,1" output_padding="0,0" pads_begin="0,0" pads_end="0,0" strides="1,1"/>
			<input>
				<port id="0">
					<dim>1</dim>
					<dim>256</dim>
					<dim>1</dim>
					<dim>1</dim>
				</port>
				<port id="1">
					<dim>60</dim>
					<dim>256</dim>
					<dim>1</dim>
					<dim>1</dim>
				</port>
			</input>
			<output>
				<port id="2" precision="FP32">
					<dim>1</dim>
					<dim>60</dim>
					<dim>1</dim>
					<dim>1</dim>
				</port>
			</output>
		</layer>
		<layer id="287" name="landmarks_fc_nose_bottom_x_new/Dims4623/copy_const569_const" type="Const" version="opset1">
			<data element_type="f32" offset="8063184" shape="1,60,1,1" size="240"/>
			<output>
				<port id="1" precision="FP32">
					<dim>1</dim>
					<dim>60</dim>
					<dim>1</dim>
					<dim>1</dim>
				</port>
			</output>
		</layer>
		<layer id="288" name="landmarks_fc_nose_bottom_x_new" type="Add" version="opset1">
			<input>
				<port id="0">
					<dim>1</dim>
					<dim>60</dim>
					<dim>1</dim>
					<dim>1</dim>
				</port>
				<port id="1">
					<dim>1</dim>
					<dim>60</dim>
					<dim>1</dim>
					<dim>1</dim>
				</port>
			</input>
			<output>
				<port id="2" precision="FP32">
					<dim>1</dim>
					<dim>60</dim>
					<dim>1</dim>
					<dim>1</dim>
				</port>
			</output>
		</layer>
		<layer id="289" name="softmax_landmarks_nose_bottom_x" type="SoftMax" version="opset1">
			<data axis="1"/>
			<input>
				<port id="0">
					<dim>1</dim>
					<dim>60</dim>
					<dim>1</dim>
					<dim>1</dim>
				</port>
			</input>
			<output>
				<port id="1" precision="FP32">
					<dim>1</dim>
					<dim>60</dim>
					<dim>1</dim>
					<dim>1</dim>
				</port>
			</output>
		</layer>
		<layer id="290" name="47124716_const" type="Const" version="opset1">
			<data element_type="f32" offset="29656" shape="" size="4"/>
			<output>
				<port id="1" precision="FP32"/>
			</output>
		</layer>
		<layer id="291" name="47134717_const" type="Const" version="opset1">
			<data element_type="f32" offset="8063424" shape="" size="4"/>
			<output>
				<port id="1" precision="FP32"/>
			</output>
		</layer>
		<layer id="292" name="47144718_const" type="Const" version="opset1">
			<data element_type="f32" offset="29656" shape="" size="4"/>
			<output>
				<port id="1" precision="FP32"/>
			</output>
		</layer>
		<layer id="293" name="47154719_const" type="Const" version="opset1">
			<data element_type="f32" offset="8063424" shape="" size="4"/>
			<output>
				<port id="1" precision="FP32"/>
			</output>
		</layer>
		<layer id="294" name="raw_predicts/fq_input_8" type="FakeQuantize" version="opset1">
			<data levels="256"/>
			<input>
				<port id="0">
					<dim>1</dim>
					<dim>60</dim>
					<dim>1</dim>
					<dim>1</dim>
				</port>
				<port id="1"/>
				<port id="2"/>
				<port id="3"/>
				<port id="4"/>
			</input>
			<output>
				<port id="5" precision="FP32">
					<dim>1</dim>
					<dim>60</dim>
					<dim>1</dim>
					<dim>1</dim>
				</port>
			</output>
		</layer>
		<layer id="295" name="255/Output_0/Data__const572_const" type="Const" version="opset1">
			<data element_type="f32" offset="8063428" shape="60,256,1,1" size="61440"/>
			<output>
				<port id="1" precision="FP32">
					<dim>60</dim>
					<dim>256</dim>
					<dim>1</dim>
					<dim>1</dim>
				</port>
			</output>
		</layer>
		<layer id="296" name="23672371_const" type="Const" version="opset1">
			<data element_type="f32" offset="8124868" shape="60,1,1,1" size="240"/>
			<output>
				<port id="1" precision="FP32">
					<dim>60</dim>
					<dim>1</dim>
					<dim>1</dim>
					<dim>1</dim>
				</port>
			</output>
		</layer>
		<layer id="297" name="23682372_const" type="Const" version="opset1">
			<data element_type="f32" offset="8125108" shape="60,1,1,1" size="240"/>
			<output>
				<port id="1" precision="FP32">
					<dim>60</dim>
					<dim>1</dim>
					<dim>1</dim>
					<dim>1</dim>
				</port>
			</output>
		</layer>
		<layer id="298" name="23692373_const" type="Const" version="opset1">
			<data element_type="f32" offset="8124868" shape="60,1,1,1" size="240"/>
			<output>
				<port id="1" precision="FP32">
					<dim>60</dim>
					<dim>1</dim>
					<dim>1</dim>
					<dim>1</dim>
				</port>
			</output>
		</layer>
		<layer id="299" name="23702374_const" type="Const" version="opset1">
			<data element_type="f32" offset="8125108" shape="60,1,1,1" size="240"/>
			<output>
				<port id="1" precision="FP32">
					<dim>60</dim>
					<dim>1</dim>
					<dim>1</dim>
					<dim>1</dim>
				</port>
			</output>
		</layer>
		<layer id="300" name="landmarks_fc_nose_bottom_y_new/WithoutBiases/fq_weights_1" type="FakeQuantize" version="opset1">
			<data levels="255"/>
			<input>
				<port id="0">
					<dim>60</dim>
					<dim>256</dim>
					<dim>1</dim>
					<dim>1</dim>
				</port>
				<port id="1">
					<dim>60</dim>
					<dim>1</dim>
					<dim>1</dim>
					<dim>1</dim>
				</port>
				<port id="2">
					<dim>60</dim>
					<dim>1</dim>
					<dim>1</dim>
					<dim>1</dim>
				</port>
				<port id="3">
					<dim>60</dim>
					<dim>1</dim>
					<dim>1</dim>
					<dim>1</dim>
				</port>
				<port id="4">
					<dim>60</dim>
					<dim>1</dim>
					<dim>1</dim>
					<dim>1</dim>
				</port>
			</input>
			<output>
				<port id="5" precision="FP32">
					<dim>60</dim>
					<dim>256</dim>
					<dim>1</dim>
					<dim>1</dim>
				</port>
			</output>
		</layer>
		<layer id="301" name="landmarks_fc_nose_bottom_y_new/WithoutBiases" type="Convolution" version="opset1">
			<data dilations="1,1" output_padding="0,0" pads_begin="0,0" pads_end="0,0" strides="1,1"/>
			<input>
				<port id="0">
					<dim>1</dim>
					<dim>256</dim>
					<dim>1</dim>
					<dim>1</dim>
				</port>
				<port id="1">
					<dim>60</dim>
					<dim>256</dim>
					<dim>1</dim>
					<dim>1</dim>
				</port>
			</input>
			<output>
				<port id="2" precision="FP32">
					<dim>1</dim>
					<dim>60</dim>
					<dim>1</dim>
					<dim>1</dim>
				</port>
			</output>
		</layer>
		<layer id="302" name="landmarks_fc_nose_bottom_y_new/Dims5007/copy_const574_const" type="Const" version="opset1">
			<data element_type="f32" offset="8125348" shape="1,60,1,1" size="240"/>
			<output>
				<port id="1" precision="FP32">
					<dim>1</dim>
					<dim>60</dim>
					<dim>1</dim>
					<dim>1</dim>
				</port>
			</output>
		</layer>
		<layer id="303" name="landmarks_fc_nose_bottom_y_new" type="Add" version="opset1">
			<input>
				<port id="0">
					<dim>1</dim>
					<dim>60</dim>
					<dim>1</dim>
					<dim>1</dim>
				</port>
				<port id="1">
					<dim>1</dim>
					<dim>60</dim>
					<dim>1</dim>
					<dim>1</dim>
				</port>
			</input>
			<output>
				<port id="2" precision="FP32">
					<dim>1</dim>
					<dim>60</dim>
					<dim>1</dim>
					<dim>1</dim>
				</port>
			</output>
		</layer>
		<layer id="304" name="softmax_landmarks_nose_bottom_y" type="SoftMax" version="opset1">
			<data axis="1"/>
			<input>
				<port id="0">
					<dim>1</dim>
					<dim>60</dim>
					<dim>1</dim>
					<dim>1</dim>
				</port>
			</input>
			<output>
				<port id="1" precision="FP32">
					<dim>1</dim>
					<dim>60</dim>
					<dim>1</dim>
					<dim>1</dim>
				</port>
			</output>
		</layer>
		<layer id="305" name="47224726_const" type="Const" version="opset1">
			<data element_type="f32" offset="29656" shape="" size="4"/>
			<output>
				<port id="1" precision="FP32"/>
			</output>
		</layer>
		<layer id="306" name="47234727_const" type="Const" version="opset1">
			<data element_type="f32" offset="8125588" shape="" size="4"/>
			<output>
				<port id="1" precision="FP32"/>
			</output>
		</layer>
		<layer id="307" name="47244728_const" type="Const" version="opset1">
			<data element_type="f32" offset="29656" shape="" size="4"/>
			<output>
				<port id="1" precision="FP32"/>
			</output>
		</layer>
		<layer id="308" name="47254729_const" type="Const" version="opset1">
			<data element_type="f32" offset="8125588" shape="" size="4"/>
			<output>
				<port id="1" precision="FP32"/>
			</output>
		</layer>
		<layer id="309" name="raw_predicts/fq_input_9" type="FakeQuantize" version="opset1">
			<data levels="256"/>
			<input>
				<port id="0">
					<dim>1</dim>
					<dim>60</dim>
					<dim>1</dim>
					<dim>1</dim>
				</port>
				<port id="1"/>
				<port id="2"/>
				<port id="3"/>
				<port id="4"/>
			</input>
			<output>
				<port id="5" precision="FP32">
					<dim>1</dim>
					<dim>60</dim>
					<dim>1</dim>
					<dim>1</dim>
				</port>
			</output>
		</layer>
		<layer id="310" name="227/Output_0/Data__const577_const" type="Const" version="opset1">
			<data element_type="f32" offset="8125592" shape="60,256,1,1" size="61440"/>
			<output>
				<port id="1" precision="FP32">
					<dim>60</dim>
					<dim>256</dim>
					<dim>1</dim>
					<dim>1</dim>
				</port>
			</output>
		</layer>
		<layer id="311" name="18571861_const" type="Const" version="opset1">
			<data element_type="f32" offset="8187032" shape="60,1,1,1" size="240"/>
			<output>
				<port id="1" precision="FP32">
					<dim>60</dim>
					<dim>1</dim>
					<dim>1</dim>
					<dim>1</dim>
				</port>
			</output>
		</layer>
		<layer id="312" name="18581862_const" type="Const" version="opset1">
			<data element_type="f32" offset="8187272" shape="60,1,1,1" size="240"/>
			<output>
				<port id="1" precision="FP32">
					<dim>60</dim>
					<dim>1</dim>
					<dim>1</dim>
					<dim>1</dim>
				</port>
			</output>
		</layer>
		<layer id="313" name="18591863_const" type="Const" version="opset1">
			<data element_type="f32" offset="8187032" shape="60,1,1,1" size="240"/>
			<output>
				<port id="1" precision="FP32">
					<dim>60</dim>
					<dim>1</dim>
					<dim>1</dim>
					<dim>1</dim>
				</port>
			</output>
		</layer>
		<layer id="314" name="18601864_const" type="Const" version="opset1">
			<data element_type="f32" offset="8187272" shape="60,1,1,1" size="240"/>
			<output>
				<port id="1" precision="FP32">
					<dim>60</dim>
					<dim>1</dim>
					<dim>1</dim>
					<dim>1</dim>
				</port>
			</output>
		</layer>
		<layer id="315" name="landmarks_fc_nose_tip_x_new/WithoutBiases/fq_weights_1" type="FakeQuantize" version="opset1">
			<data levels="255"/>
			<input>
				<port id="0">
					<dim>60</dim>
					<dim>256</dim>
					<dim>1</dim>
					<dim>1</dim>
				</port>
				<port id="1">
					<dim>60</dim>
					<dim>1</dim>
					<dim>1</dim>
					<dim>1</dim>
				</port>
				<port id="2">
					<dim>60</dim>
					<dim>1</dim>
					<dim>1</dim>
					<dim>1</dim>
				</port>
				<port id="3">
					<dim>60</dim>
					<dim>1</dim>
					<dim>1</dim>
					<dim>1</dim>
				</port>
				<port id="4">
					<dim>60</dim>
					<dim>1</dim>
					<dim>1</dim>
					<dim>1</dim>
				</port>
			</input>
			<output>
				<port id="5" precision="FP32">
					<dim>60</dim>
					<dim>256</dim>
					<dim>1</dim>
					<dim>1</dim>
				</port>
			</output>
		</layer>
		<layer id="316" name="landmarks_fc_nose_tip_x_new/WithoutBiases" type="Convolution" version="opset1">
			<data dilations="1,1" output_padding="0,0" pads_begin="0,0" pads_end="0,0" strides="1,1"/>
			<input>
				<port id="0">
					<dim>1</dim>
					<dim>256</dim>
					<dim>1</dim>
					<dim>1</dim>
				</port>
				<port id="1">
					<dim>60</dim>
					<dim>256</dim>
					<dim>1</dim>
					<dim>1</dim>
				</port>
			</input>
			<output>
				<port id="2" precision="FP32">
					<dim>1</dim>
					<dim>60</dim>
					<dim>1</dim>
					<dim>1</dim>
				</port>
			</output>
		</layer>
		<layer id="317" name="landmarks_fc_nose_tip_x_new/Dims4989/copy_const579_const" type="Const" version="opset1">
			<data element_type="f32" offset="8187512" shape="1,60,1,1" size="240"/>
			<output>
				<port id="1" precision="FP32">
					<dim>1</dim>
					<dim>60</dim>
					<dim>1</dim>
					<dim>1</dim>
				</port>
			</output>
		</layer>
		<layer id="318" name="landmarks_fc_nose_tip_x_new" type="Add" version="opset1">
			<input>
				<port id="0">
					<dim>1</dim>
					<dim>60</dim>
					<dim>1</dim>
					<dim>1</dim>
				</port>
				<port id="1">
					<dim>1</dim>
					<dim>60</dim>
					<dim>1</dim>
					<dim>1</dim>
				</port>
			</input>
			<output>
				<port id="2" precision="FP32">
					<dim>1</dim>
					<dim>60</dim>
					<dim>1</dim>
					<dim>1</dim>
				</port>
			</output>
		</layer>
		<layer id="319" name="softmax_landmarks_nose_tip_x" type="SoftMax" version="opset1">
			<data axis="1"/>
			<input>
				<port id="0">
					<dim>1</dim>
					<dim>60</dim>
					<dim>1</dim>
					<dim>1</dim>
				</port>
			</input>
			<output>
				<port id="1" precision="FP32">
					<dim>1</dim>
					<dim>60</dim>
					<dim>1</dim>
					<dim>1</dim>
				</port>
			</output>
		</layer>
		<layer id="320" name="40524056_const" type="Const" version="opset1">
			<data element_type="f32" offset="29656" shape="" size="4"/>
			<output>
				<port id="1" precision="FP32"/>
			</output>
		</layer>
		<layer id="321" name="40534057_const" type="Const" version="opset1">
			<data element_type="f32" offset="8187752" shape="" size="4"/>
			<output>
				<port id="1" precision="FP32"/>
			</output>
		</layer>
		<layer id="322" name="40544058_const" type="Const" version="opset1">
			<data element_type="f32" offset="29656" shape="" size="4"/>
			<output>
				<port id="1" precision="FP32"/>
			</output>
		</layer>
		<layer id="323" name="40554059_const" type="Const" version="opset1">
			<data element_type="f32" offset="8187752" shape="" size="4"/>
			<output>
				<port id="1" precision="FP32"/>
			</output>
		</layer>
		<layer id="324" name="raw_predicts/fq_input_10" type="FakeQuantize" version="opset1">
			<data levels="256"/>
			<input>
				<port id="0">
					<dim>1</dim>
					<dim>60</dim>
					<dim>1</dim>
					<dim>1</dim>
				</port>
				<port id="1"/>
				<port id="2"/>
				<port id="3"/>
				<port id="4"/>
			</input>
			<output>
				<port id="5" precision="FP32">
					<dim>1</dim>
					<dim>60</dim>
					<dim>1</dim>
					<dim>1</dim>
				</port>
			</output>
		</layer>
		<layer id="325" name="299/Output_0/Data__const582_const" type="Const" version="opset1">
			<data element_type="f32" offset="8187756" shape="60,256,1,1" size="61440"/>
			<output>
				<port id="1" precision="FP32">
					<dim>60</dim>
					<dim>256</dim>
					<dim>1</dim>
					<dim>1</dim>
				</port>
			</output>
		</layer>
		<layer id="326" name="16371641_const" type="Const" version="opset1">
			<data element_type="f32" offset="8249196" shape="60,1,1,1" size="240"/>
			<output>
				<port id="1" precision="FP32">
					<dim>60</dim>
					<dim>1</dim>
					<dim>1</dim>
					<dim>1</dim>
				</port>
			</output>
		</layer>
		<layer id="327" name="16381642_const" type="Const" version="opset1">
			<data element_type="f32" offset="8249436" shape="60,1,1,1" size="240"/>
			<output>
				<port id="1" precision="FP32">
					<dim>60</dim>
					<dim>1</dim>
					<dim>1</dim>
					<dim>1</dim>
				</port>
			</output>
		</layer>
		<layer id="328" name="16391643_const" type="Const" version="opset1">
			<data element_type="f32" offset="8249196" shape="60,1,1,1" size="240"/>
			<output>
				<port id="1" precision="FP32">
					<dim>60</dim>
					<dim>1</dim>
					<dim>1</dim>
					<dim>1</dim>
				</port>
			</output>
		</layer>
		<layer id="329" name="16401644_const" type="Const" version="opset1">
			<data element_type="f32" offset="8249436" shape="60,1,1,1" size="240"/>
			<output>
				<port id="1" precision="FP32">
					<dim>60</dim>
					<dim>1</dim>
					<dim>1</dim>
					<dim>1</dim>
				</port>
			</output>
		</layer>
		<layer id="330" name="landmarks_fc_nose_tip_y_new/WithoutBiases/fq_weights_1" type="FakeQuantize" version="opset1">
			<data levels="255"/>
			<input>
				<port id="0">
					<dim>60</dim>
					<dim>256</dim>
					<dim>1</dim>
					<dim>1</dim>
				</port>
				<port id="1">
					<dim>60</dim>
					<dim>1</dim>
					<dim>1</dim>
					<dim>1</dim>
				</port>
				<port id="2">
					<dim>60</dim>
					<dim>1</dim>
					<dim>1</dim>
					<dim>1</dim>
				</port>
				<port id="3">
					<dim>60</dim>
					<dim>1</dim>
					<dim>1</dim>
					<dim>1</dim>
				</port>
				<port id="4">
					<dim>60</dim>
					<dim>1</dim>
					<dim>1</dim>
					<dim>1</dim>
				</port>
			</input>
			<output>
				<port id="5" precision="FP32">
					<dim>60</dim>
					<dim>256</dim>
					<dim>1</dim>
					<dim>1</dim>
				</port>
			</output>
		</layer>
		<layer id="331" name="landmarks_fc_nose_tip_y_new/WithoutBiases" type="Convolution" version="opset1">
			<data dilations="1,1" output_padding="0,0" pads_begin="0,0" pads_end="0,0" strides="1,1"/>
			<input>
				<port id="0">
					<dim>1</dim>
					<dim>256</dim>
					<dim>1</dim>
					<dim>1</dim>
				</port>
				<port id="1">
					<dim>60</dim>
					<dim>256</dim>
					<dim>1</dim>
					<dim>1</dim>
				</port>
			</input>
			<output>
				<port id="2" precision="FP32">
					<dim>1</dim>
					<dim>60</dim>
					<dim>1</dim>
					<dim>1</dim>
				</port>
			</output>
		</layer>
		<layer id="332" name="landmarks_fc_nose_tip_y_new/Dims4647/copy_const584_const" type="Const" version="opset1">
			<data element_type="f32" offset="8249676" shape="1,60,1,1" size="240"/>
			<output>
				<port id="1" precision="FP32">
					<dim>1</dim>
					<dim>60</dim>
					<dim>1</dim>
					<dim>1</dim>
				</port>
			</output>
		</layer>
		<layer id="333" name="landmarks_fc_nose_tip_y_new" type="Add" version="opset1">
			<input>
				<port id="0">
					<dim>1</dim>
					<dim>60</dim>
					<dim>1</dim>
					<dim>1</dim>
				</port>
				<port id="1">
					<dim>1</dim>
					<dim>60</dim>
					<dim>1</dim>
					<dim>1</dim>
				</port>
			</input>
			<output>
				<port id="2" precision="FP32">
					<dim>1</dim>
					<dim>60</dim>
					<dim>1</dim>
					<dim>1</dim>
				</port>
			</output>
		</layer>
		<layer id="334" name="softmax_landmarks_nose_tip_y" type="SoftMax" version="opset1">
			<data axis="1"/>
			<input>
				<port id="0">
					<dim>1</dim>
					<dim>60</dim>
					<dim>1</dim>
					<dim>1</dim>
				</port>
			</input>
			<output>
				<port id="1" precision="FP32">
					<dim>1</dim>
					<dim>60</dim>
					<dim>1</dim>
					<dim>1</dim>
				</port>
			</output>
		</layer>
		<layer id="335" name="40624066_const" type="Const" version="opset1">
			<data element_type="f32" offset="29656" shape="" size="4"/>
			<output>
				<port id="1" precision="FP32"/>
			</output>
		</layer>
		<layer id="336" name="40634067_const" type="Const" version="opset1">
			<data element_type="f32" offset="8249916" shape="" size="4"/>
			<output>
				<port id="1" precision="FP32"/>
			</output>
		</layer>
		<layer id="337" name="40644068_const" type="Const" version="opset1">
			<data element_type="f32" offset="29656" shape="" size="4"/>
			<output>
				<port id="1" precision="FP32"/>
			</output>
		</layer>
		<layer id="338" name="40654069_const" type="Const" version="opset1">
			<data element_type="f32" offset="8249916" shape="" size="4"/>
			<output>
				<port id="1" precision="FP32"/>
			</output>
		</layer>
		<layer id="339" name="raw_predicts/fq_input_11" type="FakeQuantize" version="opset1">
			<data levels="256"/>
			<input>
				<port id="0">
					<dim>1</dim>
					<dim>60</dim>
					<dim>1</dim>
					<dim>1</dim>
				</port>
				<port id="1"/>
				<port id="2"/>
				<port id="3"/>
				<port id="4"/>
			</input>
			<output>
				<port id="5" precision="FP32">
					<dim>1</dim>
					<dim>60</dim>
					<dim>1</dim>
					<dim>1</dim>
				</port>
			</output>
		</layer>
		<layer id="340" name="329/Output_0/Data__const587_const" type="Const" version="opset1">
			<data element_type="f32" offset="8249920" shape="60,256,1,1" size="61440"/>
			<output>
				<port id="1" precision="FP32">
					<dim>60</dim>
					<dim>256</dim>
					<dim>1</dim>
					<dim>1</dim>
				</port>
			</output>
		</layer>
		<layer id="341" name="14371441_const" type="Const" version="opset1">
			<data element_type="f32" offset="8311360" shape="60,1,1,1" size="240"/>
			<output>
				<port id="1" precision="FP32">
					<dim>60</dim>
					<dim>1</dim>
					<dim>1</dim>
					<dim>1</dim>
				</port>
			</output>
		</layer>
		<layer id="342" name="14381442_const" type="Const" version="opset1">
			<data element_type="f32" offset="8311600" shape="60,1,1,1" size="240"/>
			<output>
				<port id="1" precision="FP32">
					<dim>60</dim>
					<dim>1</dim>
					<dim>1</dim>
					<dim>1</dim>
				</port>
			</output>
		</layer>
		<layer id="343" name="14391443_const" type="Const" version="opset1">
			<data element_type="f32" offset="8311360" shape="60,1,1,1" size="240"/>
			<output>
				<port id="1" precision="FP32">
					<dim>60</dim>
					<dim>1</dim>
					<dim>1</dim>
					<dim>1</dim>
				</port>
			</output>
		</layer>
		<layer id="344" name="14401444_const" type="Const" version="opset1">
			<data element_type="f32" offset="8311600" shape="60,1,1,1" size="240"/>
			<output>
				<port id="1" precision="FP32">
					<dim>60</dim>
					<dim>1</dim>
					<dim>1</dim>
					<dim>1</dim>
				</port>
			</output>
		</layer>
		<layer id="345" name="landmarks_fc_lnose_x_new/WithoutBiases/fq_weights_1" type="FakeQuantize" version="opset1">
			<data levels="255"/>
			<input>
				<port id="0">
					<dim>60</dim>
					<dim>256</dim>
					<dim>1</dim>
					<dim>1</dim>
				</port>
				<port id="1">
					<dim>60</dim>
					<dim>1</dim>
					<dim>1</dim>
					<dim>1</dim>
				</port>
				<port id="2">
					<dim>60</dim>
					<dim>1</dim>
					<dim>1</dim>
					<dim>1</dim>
				</port>
				<port id="3">
					<dim>60</dim>
					<dim>1</dim>
					<dim>1</dim>
					<dim>1</dim>
				</port>
				<port id="4">
					<dim>60</dim>
					<dim>1</dim>
					<dim>1</dim>
					<dim>1</dim>
				</port>
			</input>
			<output>
				<port id="5" precision="FP32">
					<dim>60</dim>
					<dim>256</dim>
					<dim>1</dim>
					<dim>1</dim>
				</port>
			</output>
		</layer>
		<layer id="346" name="landmarks_fc_lnose_x_new/WithoutBiases" type="Convolution" version="opset1">
			<data dilations="1,1" output_padding="0,0" pads_begin="0,0" pads_end="0,0" strides="1,1"/>
			<input>
				<port id="0">
					<dim>1</dim>
					<dim>256</dim>
					<dim>1</dim>
					<dim>1</dim>
				</port>
				<port id="1">
					<dim>60</dim>
					<dim>256</dim>
					<dim>1</dim>
					<dim>1</dim>
				</port>
			</input>
			<output>
				<port id="2" precision="FP32">
					<dim>1</dim>
					<dim>60</dim>
					<dim>1</dim>
					<dim>1</dim>
				</port>
			</output>
		</layer>
		<layer id="347" name="landmarks_fc_lnose_x_new/Dims4773/copy_const589_const" type="Const" version="opset1">
			<data element_type="f32" offset="8311840" shape="1,60,1,1" size="240"/>
			<output>
				<port id="1" precision="FP32">
					<dim>1</dim>
					<dim>60</dim>
					<dim>1</dim>
					<dim>1</dim>
				</port>
			</output>
		</layer>
		<layer id="348" name="landmarks_fc_lnose_x_new" type="Add" version="opset1">
			<input>
				<port id="0">
					<dim>1</dim>
					<dim>60</dim>
					<dim>1</dim>
					<dim>1</dim>
				</port>
				<port id="1">
					<dim>1</dim>
					<dim>60</dim>
					<dim>1</dim>
					<dim>1</dim>
				</port>
			</input>
			<output>
				<port id="2" precision="FP32">
					<dim>1</dim>
					<dim>60</dim>
					<dim>1</dim>
					<dim>1</dim>
				</port>
			</output>
		</layer>
		<layer id="349" name="softmax_landmarks_lnose_x" type="SoftMax" version="opset1">
			<data axis="1"/>
			<input>
				<port id="0">
					<dim>1</dim>
					<dim>60</dim>
					<dim>1</dim>
					<dim>1</dim>
				</port>
			</input>
			<output>
				<port id="1" precision="FP32">
					<dim>1</dim>
					<dim>60</dim>
					<dim>1</dim>
					<dim>1</dim>
				</port>
			</output>
		</layer>
		<layer id="350" name="40724076_const" type="Const" version="opset1">
			<data element_type="f32" offset="29656" shape="" size="4"/>
			<output>
				<port id="1" precision="FP32"/>
			</output>
		</layer>
		<layer id="351" name="40734077_const" type="Const" version="opset1">
			<data element_type="f32" offset="8312080" shape="" size="4"/>
			<output>
				<port id="1" precision="FP32"/>
			</output>
		</layer>
		<layer id="352" name="40744078_const" type="Const" version="opset1">
			<data element_type="f32" offset="29656" shape="" size="4"/>
			<output>
				<port id="1" precision="FP32"/>
			</output>
		</layer>
		<layer id="353" name="40754079_const" type="Const" version="opset1">
			<data element_type="f32" offset="8312080" shape="" size="4"/>
			<output>
				<port id="1" precision="FP32"/>
			</output>
		</layer>
		<layer id="354" name="raw_predicts/fq_input_12" type="FakeQuantize" version="opset1">
			<data levels="256"/>
			<input>
				<port id="0">
					<dim>1</dim>
					<dim>60</dim>
					<dim>1</dim>
					<dim>1</dim>
				</port>
				<port id="1"/>
				<port id="2"/>
				<port id="3"/>
				<port id="4"/>
			</input>
			<output>
				<port id="5" precision="FP32">
					<dim>1</dim>
					<dim>60</dim>
					<dim>1</dim>
					<dim>1</dim>
				</port>
			</output>
		</layer>
		<layer id="355" name="267/Output_0/Data__const592_const" type="Const" version="opset1">
			<data element_type="f32" offset="8312084" shape="60,256,1,1" size="61440"/>
			<output>
				<port id="1" precision="FP32">
					<dim>60</dim>
					<dim>256</dim>
					<dim>1</dim>
					<dim>1</dim>
				</port>
			</output>
		</layer>
		<layer id="356" name="17571761_const" type="Const" version="opset1">
			<data element_type="f32" offset="8373524" shape="60,1,1,1" size="240"/>
			<output>
				<port id="1" precision="FP32">
					<dim>60</dim>
					<dim>1</dim>
					<dim>1</dim>
					<dim>1</dim>
				</port>
			</output>
		</layer>
		<layer id="357" name="17581762_const" type="Const" version="opset1">
			<data element_type="f32" offset="8373764" shape="60,1,1,1" size="240"/>
			<output>
				<port id="1" precision="FP32">
					<dim>60</dim>
					<dim>1</dim>
					<dim>1</dim>
					<dim>1</dim>
				</port>
			</output>
		</layer>
		<layer id="358" name="17591763_const" type="Const" version="opset1">
			<data element_type="f32" offset="8373524" shape="60,1,1,1" size="240"/>
			<output>
				<port id="1" precision="FP32">
					<dim>60</dim>
					<dim>1</dim>
					<dim>1</dim>
					<dim>1</dim>
				</port>
			</output>
		</layer>
		<layer id="359" name="17601764_const" type="Const" version="opset1">
			<data element_type="f32" offset="8373764" shape="60,1,1,1" size="240"/>
			<output>
				<port id="1" precision="FP32">
					<dim>60</dim>
					<dim>1</dim>
					<dim>1</dim>
					<dim>1</dim>
				</port>
			</output>
		</layer>
		<layer id="360" name="landmarks_fc_lnose_y_new/WithoutBiases/fq_weights_1" type="FakeQuantize" version="opset1">
			<data levels="255"/>
			<input>
				<port id="0">
					<dim>60</dim>
					<dim>256</dim>
					<dim>1</dim>
					<dim>1</dim>
				</port>
				<port id="1">
					<dim>60</dim>
					<dim>1</dim>
					<dim>1</dim>
					<dim>1</dim>
				</port>
				<port id="2">
					<dim>60</dim>
					<dim>1</dim>
					<dim>1</dim>
					<dim>1</dim>
				</port>
				<port id="3">
					<dim>60</dim>
					<dim>1</dim>
					<dim>1</dim>
					<dim>1</dim>
				</port>
				<port id="4">
					<dim>60</dim>
					<dim>1</dim>
					<dim>1</dim>
					<dim>1</dim>
				</port>
			</input>
			<output>
				<port id="5" precision="FP32">
					<dim>60</dim>
					<dim>256</dim>
					<dim>1</dim>
					<dim>1</dim>
				</port>
			</output>
		</layer>
		<layer id="361" name="landmarks_fc_lnose_y_new/WithoutBiases" type="Convolution" version="opset1">
			<data dilations="1,1" output_padding="0,0" pads_begin="0,0" pads_end="0,0" strides="1,1"/>
			<input>
				<port id="0">
					<dim>1</dim>
					<dim>256</dim>
					<dim>1</dim>
					<dim>1</dim>
				</port>
				<port id="1">
					<dim>60</dim>
					<dim>256</dim>
					<dim>1</dim>
					<dim>1</dim>
				</port>
			</input>
			<output>
				<port id="2" precision="FP32">
					<dim>1</dim>
					<dim>60</dim>
					<dim>1</dim>
					<dim>1</dim>
				</port>
			</output>
		</layer>
		<layer id="362" name="landmarks_fc_lnose_y_new/Dims4743/copy_const594_const" type="Const" version="opset1">
			<data element_type="f32" offset="8374004" shape="1,60,1,1" size="240"/>
			<output>
				<port id="1" precision="FP32">
					<dim>1</dim>
					<dim>60</dim>
					<dim>1</dim>
					<dim>1</dim>
				</port>
			</output>
		</layer>
		<layer id="363" name="landmarks_fc_lnose_y_new" type="Add" version="opset1">
			<input>
				<port id="0">
					<dim>1</dim>
					<dim>60</dim>
					<dim>1</dim>
					<dim>1</dim>
				</port>
				<port id="1">
					<dim>1</dim>
					<dim>60</dim>
					<dim>1</dim>
					<dim>1</dim>
				</port>
			</input>
			<output>
				<port id="2" precision="FP32">
					<dim>1</dim>
					<dim>60</dim>
					<dim>1</dim>
					<dim>1</dim>
				</port>
			</output>
		</layer>
		<layer id="364" name="softmax_landmarks_lnose_y" type="SoftMax" version="opset1">
			<data axis="1"/>
			<input>
				<port id="0">
					<dim>1</dim>
					<dim>60</dim>
					<dim>1</dim>
					<dim>1</dim>
				</port>
			</input>
			<output>
				<port id="1" precision="FP32">
					<dim>1</dim>
					<dim>60</dim>
					<dim>1</dim>
					<dim>1</dim>
				</port>
			</output>
		</layer>
		<layer id="365" name="40824086_const" type="Const" version="opset1">
			<data element_type="f32" offset="29656" shape="" size="4"/>
			<output>
				<port id="1" precision="FP32"/>
			</output>
		</layer>
		<layer id="366" name="40834087_const" type="Const" version="opset1">
			<data element_type="f32" offset="8374244" shape="" size="4"/>
			<output>
				<port id="1" precision="FP32"/>
			</output>
		</layer>
		<layer id="367" name="40844088_const" type="Const" version="opset1">
			<data element_type="f32" offset="29656" shape="" size="4"/>
			<output>
				<port id="1" precision="FP32"/>
			</output>
		</layer>
		<layer id="368" name="40854089_const" type="Const" version="opset1">
			<data element_type="f32" offset="8374244" shape="" size="4"/>
			<output>
				<port id="1" precision="FP32"/>
			</output>
		</layer>
		<layer id="369" name="raw_predicts/fq_input_13" type="FakeQuantize" version="opset1">
			<data levels="256"/>
			<input>
				<port id="0">
					<dim>1</dim>
					<dim>60</dim>
					<dim>1</dim>
					<dim>1</dim>
				</port>
				<port id="1"/>
				<port id="2"/>
				<port id="3"/>
				<port id="4"/>
			</input>
			<output>
				<port id="5" precision="FP32">
					<dim>1</dim>
					<dim>60</dim>
					<dim>1</dim>
					<dim>1</dim>
				</port>
			</output>
		</layer>
		<layer id="370" name="431/Output_0/Data__const597_const" type="Const" version="opset1">
			<data element_type="f32" offset="8374248" shape="60,256,1,1" size="61440"/>
			<output>
				<port id="1" precision="FP32">
					<dim>60</dim>
					<dim>256</dim>
					<dim>1</dim>
					<dim>1</dim>
				</port>
			</output>
		</layer>
		<layer id="371" name="25272531_const" type="Const" version="opset1">
			<data element_type="f32" offset="8435688" shape="60,1,1,1" size="240"/>
			<output>
				<port id="1" precision="FP32">
					<dim>60</dim>
					<dim>1</dim>
					<dim>1</dim>
					<dim>1</dim>
				</port>
			</output>
		</layer>
		<layer id="372" name="25282532_const" type="Const" version="opset1">
			<data element_type="f32" offset="8435928" shape="60,1,1,1" size="240"/>
			<output>
				<port id="1" precision="FP32">
					<dim>60</dim>
					<dim>1</dim>
					<dim>1</dim>
					<dim>1</dim>
				</port>
			</output>
		</layer>
		<layer id="373" name="25292533_const" type="Const" version="opset1">
			<data element_type="f32" offset="8435688" shape="60,1,1,1" size="240"/>
			<output>
				<port id="1" precision="FP32">
					<dim>60</dim>
					<dim>1</dim>
					<dim>1</dim>
					<dim>1</dim>
				</port>
			</output>
		</layer>
		<layer id="374" name="25302534_const" type="Const" version="opset1">
			<data element_type="f32" offset="8435928" shape="60,1,1,1" size="240"/>
			<output>
				<port id="1" precision="FP32">
					<dim>60</dim>
					<dim>1</dim>
					<dim>1</dim>
					<dim>1</dim>
				</port>
			</output>
		</layer>
		<layer id="375" name="landmarks_fc_rnose_x_new/WithoutBiases/fq_weights_1" type="FakeQuantize" version="opset1">
			<data levels="255"/>
			<input>
				<port id="0">
					<dim>60</dim>
					<dim>256</dim>
					<dim>1</dim>
					<dim>1</dim>
				</port>
				<port id="1">
					<dim>60</dim>
					<dim>1</dim>
					<dim>1</dim>
					<dim>1</dim>
				</port>
				<port id="2">
					<dim>60</dim>
					<dim>1</dim>
					<dim>1</dim>
					<dim>1</dim>
				</port>
				<port id="3">
					<dim>60</dim>
					<dim>1</dim>
					<dim>1</dim>
					<dim>1</dim>
				</port>
				<port id="4">
					<dim>60</dim>
					<dim>1</dim>
					<dim>1</dim>
					<dim>1</dim>
				</port>
			</input>
			<output>
				<port id="5" precision="FP32">
					<dim>60</dim>
					<dim>256</dim>
					<dim>1</dim>
					<dim>1</dim>
				</port>
			</output>
		</layer>
		<layer id="376" name="landmarks_fc_rnose_x_new/WithoutBiases" type="Convolution" version="opset1">
			<data dilations="1,1" output_padding="0,0" pads_begin="0,0" pads_end="0,0" strides="1,1"/>
			<input>
				<port id="0">
					<dim>1</dim>
					<dim>256</dim>
					<dim>1</dim>
					<dim>1</dim>
				</port>
				<port id="1">
					<dim>60</dim>
					<dim>256</dim>
					<dim>1</dim>
					<dim>1</dim>
				</port>
			</input>
			<output>
				<port id="2" precision="FP32">
					<dim>1</dim>
					<dim>60</dim>
					<dim>1</dim>
					<dim>1</dim>
				</port>
			</output>
		</layer>
		<layer id="377" name="landmarks_fc_rnose_x_new/Dims5103/copy_const599_const" type="Const" version="opset1">
			<data element_type="f32" offset="8436168" shape="1,60,1,1" size="240"/>
			<output>
				<port id="1" precision="FP32">
					<dim>1</dim>
					<dim>60</dim>
					<dim>1</dim>
					<dim>1</dim>
				</port>
			</output>
		</layer>
		<layer id="378" name="landmarks_fc_rnose_x_new" type="Add" version="opset1">
			<input>
				<port id="0">
					<dim>1</dim>
					<dim>60</dim>
					<dim>1</dim>
					<dim>1</dim>
				</port>
				<port id="1">
					<dim>1</dim>
					<dim>60</dim>
					<dim>1</dim>
					<dim>1</dim>
				</port>
			</input>
			<output>
				<port id="2" precision="FP32">
					<dim>1</dim>
					<dim>60</dim>
					<dim>1</dim>
					<dim>1</dim>
				</port>
			</output>
		</layer>
		<layer id="379" name="softmax_landmarks_rnose_x" type="SoftMax" version="opset1">
			<data axis="1"/>
			<input>
				<port id="0">
					<dim>1</dim>
					<dim>60</dim>
					<dim>1</dim>
					<dim>1</dim>
				</port>
			</input>
			<output>
				<port id="1" precision="FP32">
					<dim>1</dim>
					<dim>60</dim>
					<dim>1</dim>
					<dim>1</dim>
				</port>
			</output>
		</layer>
		<layer id="380" name="40924096_const" type="Const" version="opset1">
			<data element_type="f32" offset="29656" shape="" size="4"/>
			<output>
				<port id="1" precision="FP32"/>
			</output>
		</layer>
		<layer id="381" name="40934097_const" type="Const" version="opset1">
			<data element_type="f32" offset="8436408" shape="" size="4"/>
			<output>
				<port id="1" precision="FP32"/>
			</output>
		</layer>
		<layer id="382" name="40944098_const" type="Const" version="opset1">
			<data element_type="f32" offset="29656" shape="" size="4"/>
			<output>
				<port id="1" precision="FP32"/>
			</output>
		</layer>
		<layer id="383" name="40954099_const" type="Const" version="opset1">
			<data element_type="f32" offset="8436408" shape="" size="4"/>
			<output>
				<port id="1" precision="FP32"/>
			</output>
		</layer>
		<layer id="384" name="raw_predicts/fq_input_14" type="FakeQuantize" version="opset1">
			<data levels="256"/>
			<input>
				<port id="0">
					<dim>1</dim>
					<dim>60</dim>
					<dim>1</dim>
					<dim>1</dim>
				</port>
				<port id="1"/>
				<port id="2"/>
				<port id="3"/>
				<port id="4"/>
			</input>
			<output>
				<port id="5" precision="FP32">
					<dim>1</dim>
					<dim>60</dim>
					<dim>1</dim>
					<dim>1</dim>
				</port>
			</output>
		</layer>
		<layer id="385" name="221/Output_0/Data__const602_const" type="Const" version="opset1">
			<data element_type="f32" offset="8436412" shape="60,256,1,1" size="61440"/>
			<output>
				<port id="1" precision="FP32">
					<dim>60</dim>
					<dim>256</dim>
					<dim>1</dim>
					<dim>1</dim>
				</port>
			</output>
		</layer>
		<layer id="386" name="16971701_const" type="Const" version="opset1">
			<data element_type="f32" offset="8497852" shape="60,1,1,1" size="240"/>
			<output>
				<port id="1" precision="FP32">
					<dim>60</dim>
					<dim>1</dim>
					<dim>1</dim>
					<dim>1</dim>
				</port>
			</output>
		</layer>
		<layer id="387" name="16981702_const" type="Const" version="opset1">
			<data element_type="f32" offset="8498092" shape="60,1,1,1" size="240"/>
			<output>
				<port id="1" precision="FP32">
					<dim>60</dim>
					<dim>1</dim>
					<dim>1</dim>
					<dim>1</dim>
				</port>
			</output>
		</layer>
		<layer id="388" name="16991703_const" type="Const" version="opset1">
			<data element_type="f32" offset="8497852" shape="60,1,1,1" size="240"/>
			<output>
				<port id="1" precision="FP32">
					<dim>60</dim>
					<dim>1</dim>
					<dim>1</dim>
					<dim>1</dim>
				</port>
			</output>
		</layer>
		<layer id="389" name="17001704_const" type="Const" version="opset1">
			<data element_type="f32" offset="8498092" shape="60,1,1,1" size="240"/>
			<output>
				<port id="1" precision="FP32">
					<dim>60</dim>
					<dim>1</dim>
					<dim>1</dim>
					<dim>1</dim>
				</port>
			</output>
		</layer>
		<layer id="390" name="landmarks_fc_rnose_y_new/WithoutBiases/fq_weights_1" type="FakeQuantize" version="opset1">
			<data levels="255"/>
			<input>
				<port id="0">
					<dim>60</dim>
					<dim>256</dim>
					<dim>1</dim>
					<dim>1</dim>
				</port>
				<port id="1">
					<dim>60</dim>
					<dim>1</dim>
					<dim>1</dim>
					<dim>1</dim>
				</port>
				<port id="2">
					<dim>60</dim>
					<dim>1</dim>
					<dim>1</dim>
					<dim>1</dim>
				</port>
				<port id="3">
					<dim>60</dim>
					<dim>1</dim>
					<dim>1</dim>
					<dim>1</dim>
				</port>
				<port id="4">
					<dim>60</dim>
					<dim>1</dim>
					<dim>1</dim>
					<dim>1</dim>
				</port>
			</input>
			<output>
				<port id="5" precision="FP32">
					<dim>60</dim>
					<dim>256</dim>
					<dim>1</dim>
					<dim>1</dim>
				</port>
			</output>
		</layer>
		<layer id="391" name="landmarks_fc_rnose_y_new/WithoutBiases" type="Convolution" version="opset1">
			<data dilations="1,1" output_padding="0,0" pads_begin="0,0" pads_end="0,0" strides="1,1"/>
			<input>
				<port id="0">
					<dim>1</dim>
					<dim>256</dim>
					<dim>1</dim>
					<dim>1</dim>
				</port>
				<port id="1">
					<dim>60</dim>
					<dim>256</dim>
					<dim>1</dim>
					<dim>1</dim>
				</port>
			</input>
			<output>
				<port id="2" precision="FP32">
					<dim>1</dim>
					<dim>60</dim>
					<dim>1</dim>
					<dim>1</dim>
				</port>
			</output>
		</layer>
		<layer id="392" name="landmarks_fc_rnose_y_new/Dims4977/copy_const604_const" type="Const" version="opset1">
			<data element_type="f32" offset="8498332" shape="1,60,1,1" size="240"/>
			<output>
				<port id="1" precision="FP32">
					<dim>1</dim>
					<dim>60</dim>
					<dim>1</dim>
					<dim>1</dim>
				</port>
			</output>
		</layer>
		<layer id="393" name="landmarks_fc_rnose_y_new" type="Add" version="opset1">
			<input>
				<port id="0">
					<dim>1</dim>
					<dim>60</dim>
					<dim>1</dim>
					<dim>1</dim>
				</port>
				<port id="1">
					<dim>1</dim>
					<dim>60</dim>
					<dim>1</dim>
					<dim>1</dim>
				</port>
			</input>
			<output>
				<port id="2" precision="FP32">
					<dim>1</dim>
					<dim>60</dim>
					<dim>1</dim>
					<dim>1</dim>
				</port>
			</output>
		</layer>
		<layer id="394" name="softmax_landmarks_rnose_y" type="SoftMax" version="opset1">
			<data axis="1"/>
			<input>
				<port id="0">
					<dim>1</dim>
					<dim>60</dim>
					<dim>1</dim>
					<dim>1</dim>
				</port>
			</input>
			<output>
				<port id="1" precision="FP32">
					<dim>1</dim>
					<dim>60</dim>
					<dim>1</dim>
					<dim>1</dim>
				</port>
			</output>
		</layer>
		<layer id="395" name="41024106_const" type="Const" version="opset1">
			<data element_type="f32" offset="29656" shape="" size="4"/>
			<output>
				<port id="1" precision="FP32"/>
			</output>
		</layer>
		<layer id="396" name="41034107_const" type="Const" version="opset1">
			<data element_type="f32" offset="8498572" shape="" size="4"/>
			<output>
				<port id="1" precision="FP32"/>
			</output>
		</layer>
		<layer id="397" name="41044108_const" type="Const" version="opset1">
			<data element_type="f32" offset="29656" shape="" size="4"/>
			<output>
				<port id="1" precision="FP32"/>
			</output>
		</layer>
		<layer id="398" name="41054109_const" type="Const" version="opset1">
			<data element_type="f32" offset="8498572" shape="" size="4"/>
			<output>
				<port id="1" precision="FP32"/>
			</output>
		</layer>
		<layer id="399" name="raw_predicts/fq_input_15" type="FakeQuantize" version="opset1">
			<data levels="256"/>
			<input>
				<port id="0">
					<dim>1</dim>
					<dim>60</dim>
					<dim>1</dim>
					<dim>1</dim>
				</port>
				<port id="1"/>
				<port id="2"/>
				<port id="3"/>
				<port id="4"/>
			</input>
			<output>
				<port id="5" precision="FP32">
					<dim>1</dim>
					<dim>60</dim>
					<dim>1</dim>
					<dim>1</dim>
				</port>
			</output>
		</layer>
		<layer id="400" name="Mul1_7178/Fused_Mul_84038405_const607_const" type="Const" version="opset1">
			<data element_type="f32" offset="8498576" shape="256,512,1,1" size="524288"/>
			<output>
				<port id="1" precision="FP32">
					<dim>256</dim>
					<dim>512</dim>
					<dim>1</dim>
					<dim>1</dim>
				</port>
			</output>
		</layer>
		<layer id="401" name="27872791_const" type="Const" version="opset1">
			<data element_type="f32" offset="9022864" shape="256,1,1,1" size="1024"/>
			<output>
				<port id="1" precision="FP32">
					<dim>256</dim>
					<dim>1</dim>
					<dim>1</dim>
					<dim>1</dim>
				</port>
			</output>
		</layer>
		<layer id="402" name="27882792_const" type="Const" version="opset1">
			<data element_type="f32" offset="9023888" shape="256,1,1,1" size="1024"/>
			<output>
				<port id="1" precision="FP32">
					<dim>256</dim>
					<dim>1</dim>
					<dim>1</dim>
					<dim>1</dim>
				</port>
			</output>
		</layer>
		<layer id="403" name="27892793_const" type="Const" version="opset1">
			<data element_type="f32" offset="9022864" shape="256,1,1,1" size="1024"/>
			<output>
				<port id="1" precision="FP32">
					<dim>256</dim>
					<dim>1</dim>
					<dim>1</dim>
					<dim>1</dim>
				</port>
			</output>
		</layer>
		<layer id="404" name="27902794_const" type="Const" version="opset1">
			<data element_type="f32" offset="9023888" shape="256,1,1,1" size="1024"/>
			<output>
				<port id="1" precision="FP32">
					<dim>256</dim>
					<dim>1</dim>
					<dim>1</dim>
					<dim>1</dim>
				</port>
			</output>
		</layer>
		<layer id="405" name="landmarks_conv_rmouth_corner/WithoutBiases/fq_weights_1" type="FakeQuantize" version="opset1">
			<data levels="255"/>
			<input>
				<port id="0">
					<dim>256</dim>
					<dim>512</dim>
					<dim>1</dim>
					<dim>1</dim>
				</port>
				<port id="1">
					<dim>256</dim>
					<dim>1</dim>
					<dim>1</dim>
					<dim>1</dim>
				</port>
				<port id="2">
					<dim>256</dim>
					<dim>1</dim>
					<dim>1</dim>
					<dim>1</dim>
				</port>
				<port id="3">
					<dim>256</dim>
					<dim>1</dim>
					<dim>1</dim>
					<dim>1</dim>
				</port>
				<port id="4">
					<dim>256</dim>
					<dim>1</dim>
					<dim>1</dim>
					<dim>1</dim>
				</port>
			</input>
			<output>
				<port id="5" precision="FP32">
					<dim>256</dim>
					<dim>512</dim>
					<dim>1</dim>
					<dim>1</dim>
				</port>
			</output>
		</layer>
		<layer id="406" name="landmarks_conv_rmouth_corner/WithoutBiases" type="Convolution" version="opset1">
			<data dilations="1,1" output_padding="0,0" pads_begin="0,0" pads_end="0,0" strides="1,1"/>
			<input>
				<port id="0">
					<dim>1</dim>
					<dim>512</dim>
					<dim>1</dim>
					<dim>1</dim>
				</port>
				<port id="1">
					<dim>256</dim>
					<dim>512</dim>
					<dim>1</dim>
					<dim>1</dim>
				</port>
			</input>
			<output>
				<port id="2" precision="FP32">
					<dim>1</dim>
					<dim>256</dim>
					<dim>1</dim>
					<dim>1</dim>
				</port>
			</output>
		</layer>
		<layer id="407" name="data_add_78177822/copy_const609_const" type="Const" version="opset1">
			<data element_type="f32" offset="9024912" shape="1,256,1,1" size="1024"/>
			<output>
				<port id="1" precision="FP32">
					<dim>1</dim>
					<dim>256</dim>
					<dim>1</dim>
					<dim>1</dim>
				</port>
			</output>
		</layer>
		<layer id="408" name="landmarks_conv_rmouth_corner/Fused_Add_" type="Add" version="opset1">
			<input>
				<port id="0">
					<dim>1</dim>
					<dim>256</dim>
					<dim>1</dim>
					<dim>1</dim>
				</port>
				<port id="1">
					<dim>1</dim>
					<dim>256</dim>
					<dim>1</dim>
					<dim>1</dim>
				</port>
			</input>
			<output>
				<port id="2" precision="FP32">
					<dim>1</dim>
					<dim>256</dim>
					<dim>1</dim>
					<dim>1</dim>
				</port>
			</output>
		</layer>
		<layer id="409" name="relu_rmouth_corner" type="ReLU" version="opset1">
			<input>
				<port id="0">
					<dim>1</dim>
					<dim>256</dim>
					<dim>1</dim>
					<dim>1</dim>
				</port>
			</input>
			<output>
				<port id="1" precision="FP32">
					<dim>1</dim>
					<dim>256</dim>
					<dim>1</dim>
					<dim>1</dim>
				</port>
			</output>
		</layer>
		<layer id="410" name="25772581_const" type="Const" version="opset1">
			<data element_type="f32" offset="29656" shape="" size="4"/>
			<output>
				<port id="1" precision="FP32"/>
			</output>
		</layer>
		<layer id="411" name="25782582_const" type="Const" version="opset1">
			<data element_type="f32" offset="9025936" shape="" size="4"/>
			<output>
				<port id="1" precision="FP32"/>
			</output>
		</layer>
		<layer id="412" name="25792583_const" type="Const" version="opset1">
			<data element_type="f32" offset="29656" shape="" size="4"/>
…
		<edge from-layer="706" from-port="2" to-layer="708" to-port="0"/>
		<edge from-layer="707" from-port="1" to-layer="708" to-port="1"/>
		<edge from-layer="708" from-port="2" to-layer="709" to-port="0"/>
		<edge from-layer="709" from-port="1" to-layer="714" to-port="0"/>
		<edge from-layer="710" from-port="1" to-layer="714" to-port="1"/>
		<edge from-layer="711" from-port="1" to-layer="714" to-port="2"/>
		<edge from-layer="712" from-port="1" to-layer="714" to-port="3"/>
		<edge from-layer="713" from-port="1" to-layer="714" to-port="4"/>
		<edge from-layer="715" from-port="1" to-layer="720" to-port="0"/>
		<edge from-layer="716" from-port="1" to-layer="720" to-port="1"/>
		<edge from-layer="717" from-port="1" to-layer="720" to-port="2"/>
		<edge from-layer="718" from-port="1" to-layer="720" to-port="3"/>
		<edge from-layer="719" from-port="1" to-layer="720" to-port="4"/>
		<edge from-layer="654" from-port="5" to-layer="721" to-port="0"/>
		<edge from-layer="720" from-port="5" to-layer="721" to-port="1"/>
		<edge from-layer="721" from-port="2" to-layer="723" to-port="0"/>
		<edge from-layer="722" from-port="1" to-layer="723" to-port="1"/>
		<edge from-layer="723" from-port="2" to-layer="724" to-port="0"/>
		<edge from-layer="724" from-port="1" to-layer="729" to-port="0"/>
		<edge from-layer="725" from-port="1" to-layer="729" to-port="1"/>
		<edge from-layer="726" from-port="1" to-layer="729" to-port="2"/>
		<edge from-layer="727" from-port="1" to-layer="729" to-port="3"/>
		<edge from-layer="728" from-port="1" to-layer="729" to-port="4"/>
		<edge from-layer="730" from-port="1" to-layer="735" to-port="0"/>
		<edge from-layer="731" from-port="1" to-layer="735" to-port="1"/>
		<edge from-layer="732" from-port="1" to-layer="735" to-port="2"/>
		<edge from-layer="733" from-port="1" to-layer="735" to-port="3"/>
		<edge from-layer="734" from-port="1" to-layer="735" to-port="4"/>
		<edge from-layer="654" from-port="5" to-layer="736" to-port="0"/>
		<edge from-layer="735" from-port="5" to-layer="736" to-port="1"/>
		<edge from-layer="736" from-port="2" to-layer="738" to-port="0"/>
		<edge from-layer="737" from-port="1" to-layer="738" to-port="1"/>
		<edge from-layer="738" from-port="2" to-layer="739" to-port="0"/>
		<edge from-layer="739" from-port="1" to-layer="744" to-port="0"/>
		<edge from-layer="740" from-port="1" to-layer="744" to-port="1"/>
		<edge from-layer="741" from-port="1" to-layer="744" to-port="2"/>
		<edge from-layer="742" from-port="1" to-layer="744" to-port="3"/>
		<edge from-layer="743" from-port="1" to-layer="744" to-port="4"/>
		<edge from-layer="745" from-port="1" to-layer="750" to-port="0"/>
		<edge from-layer="746" from-port="1" to-layer="750" to-port="1"/>
		<edge from-layer="747" from-port="1" to-layer="750" to-port="2"/>
		<edge from-layer="748" from-port="1" to-layer="750" to-port="3"/>
		<edge from-layer="749" from-port="1" to-layer="750" to-port="4"/>
		<edge from-layer="114" from-port="5" to-layer="751" to-port="0"/>
		<edge from-layer="750" from-port="5" to-layer="751" to-port="1"/>
		<edge from-layer="751" from-port="2" to-layer="753" to-port="0"/>
		<edge from-layer="752" from-port="1" to-layer="753" to-port="1"/>
		<edge from-layer="753" from-port="2" to-layer="754" to-port="0"/>
		<edge from-layer="754" from-port="1" to-layer="759" to-port="0"/>
		<edge from-layer="755" from-port="1" to-layer="759" to-port="1"/>
		<edge from-layer="756" from-port="1" to-layer="759" to-port="2"/>
		<edge from-layer="757" from-port="1" to-layer="759" to-port="3"/>
		<edge from-layer="758" from-port="1" to-layer="759" to-port="4"/>
		<edge from-layer="760" from-port="1" to-layer="765" to-port="0"/>
		<edge from-layer="761" from-port="1" to-layer="765" to-port="1"/>
		<edge from-layer="762" from-port="1" to-layer="765" to-port="2"/>
		<edge from-layer="763" from-port="1" to-layer="765" to-port="3"/>
		<edge from-layer="764" from-port="1" to-layer="765" to-port="4"/>
		<edge from-layer="759" from-port="5" to-layer="766" to-port="0"/>
		<edge from-layer="765" from-port="5" to-layer="766" to-port="1"/>
		<edge from-layer="766" from-port="2" to-layer="768" to-port="0"/>
		<edge from-layer="767" from-port="1" to-layer="768" to-port="1"/>
		<edge from-layer="768" from-port="2" to-layer="769" to-port="0"/>
		<edge from-layer="769" from-port="1" to-layer="774" to-port="0"/>
		<edge from-layer="770" from-port="1" to-layer="774" to-port="1"/>
		<edge from-layer="771" from-port="1" to-layer="774" to-port="2"/>
		<edge from-layer="772" from-port="1" to-layer="774" to-port="3"/>
		<edge from-layer="773" from-port="1" to-layer="774" to-port="4"/>
		<edge from-layer="775" from-port="1" to-layer="780" to-port="0"/>
		<edge from-layer="776" from-port="1" to-layer="780" to-port="1"/>
		<edge from-layer="777" from-port="1" to-layer="780" to-port="2"/>
		<edge from-layer="778" from-port="1" to-layer="780" to-port="3"/>
		<edge from-layer="779" from-port="1" to-layer="780" to-port="4"/>
		<edge from-layer="759" from-port="5" to-layer="781" to-port="0"/>
		<edge from-layer="780" from-port="5" to-layer="781" to-port="1"/>
		<edge from-layer="781" from-port="2" to-layer="783" to-port="0"/>
		<edge from-layer="782" from-port="1" to-layer="783" to-port="1"/>
		<edge from-layer="783" from-port="2" to-layer="784" to-port="0"/>
		<edge from-layer="784" from-port="1" to-layer="789" to-port="0"/>
		<edge from-layer="785" from-port="1" to-layer="789" to-port="1"/>
		<edge from-layer="786" from-port="1" to-layer="789" to-port="2"/>
		<edge from-layer="787" from-port="1" to-layer="789" to-port="3"/>
		<edge from-layer="788" from-port="1" to-layer="789" to-port="4"/>
		<edge from-layer="790" from-port="1" to-layer="795" to-port="0"/>
		<edge from-layer="791" from-port="1" to-layer="795" to-port="1"/>
		<edge from-layer="792" from-port="1" to-layer="795" to-port="2"/>
		<edge from-layer="793" from-port="1" to-layer="795" to-port="3"/>
		<edge from-layer="794" from-port="1" to-layer="795" to-port="4"/>
		<edge from-layer="759" from-port="5" to-layer="796" to-port="0"/>
		<edge from-layer="795" from-port="5" to-layer="796" to-port="1"/>
		<edge from-layer="796" from-port="2" to-layer="798" to-port="0"/>
		<edge from-layer="797" from-port="1" to-layer="798" to-port="1"/>
		<edge from-layer="798" from-port="2" to-layer="799" to-port="0"/>
		<edge from-layer="799" from-port="1" to-layer="804" to-port="0"/>
		<edge from-layer="800" from-port="1" to-layer="804" to-port="1"/>
		<edge from-layer="801" from-port="1" to-layer="804" to-port="2"/>
		<edge from-layer="802" from-port="1" to-layer="804" to-port="3"/>
		<edge from-layer="803" from-port="1" to-layer="804" to-port="4"/>
		<edge from-layer="805" from-port="1" to-layer="810" to-port="0"/>
		<edge from-layer="806" from-port="1" to-layer="810" to-port="1"/>
		<edge from-layer="807" from-port="1" to-layer="810" to-port="2"/>
		<edge from-layer="808" from-port="1" to-layer="810" to-port="3"/>
		<edge from-layer="809" from-port="1" to-layer="810" to-port="4"/>
		<edge from-layer="759" from-port="5" to-layer="811" to-port="0"/>
		<edge from-layer="810" from-port="5" to-layer="811" to-port="1"/>
		<edge from-layer="811" from-port="2" to-layer="813" to-port="0"/>
		<edge from-layer="812" from-port="1" to-layer="813" to-port="1"/>
		<edge from-layer="813" from-port="2" to-layer="814" to-port="0"/>
		<edge from-layer="814" from-port="1" to-layer="819" to-port="0"/>
		<edge from-layer="815" from-port="1" to-layer="819" to-port="1"/>
		<edge from-layer="816" from-port="1" to-layer="819" to-port="2"/>
		<edge from-layer="817" from-port="1" to-layer="819" to-port="3"/>
		<edge from-layer="818" from-port="1" to-layer="819" to-port="4"/>
		<edge from-layer="820" from-port="1" to-layer="825" to-port="0"/>
		<edge from-layer="821" from-port="1" to-layer="825" to-port="1"/>
		<edge from-layer="822" from-port="1" to-layer="825" to-port="2"/>
		<edge from-layer="823" from-port="1" to-layer="825" to-port="3"/>
		<edge from-layer="824" from-port="1" to-layer="825" to-port="4"/>
		<edge from-layer="759" from-port="5" to-layer="826" to-port="0"/>
		<edge from-layer="825" from-port="5" to-layer="826" to-port="1"/>
		<edge from-layer="826" from-port="2" to-layer="828" to-port="0"/>
		<edge from-layer="827" from-port="1" to-layer="828" to-port="1"/>
		<edge from-layer="828" from-port="2" to-layer="829" to-port="0"/>
		<edge from-layer="829" from-port="1" to-layer="834" to-port="0"/>
		<edge from-layer="830" from-port="1" to-layer="834" to-port="1"/>
		<edge from-layer="831" from-port="1" to-layer="834" to-port="2"/>
		<edge from-layer="832" from-port="1" to-layer="834" to-port="3"/>
		<edge from-layer="833" from-port="1" to-layer="834" to-port="4"/>
		<edge from-layer="835" from-port="1" to-layer="840" to-port="0"/>
		<edge from-layer="836" from-port="1" to-layer="840" to-port="1"/>
		<edge from-layer="837" from-port="1" to-layer="840" to-port="2"/>
		<edge from-layer="838" from-port="1" to-layer="840" to-port="3"/>
		<edge from-layer="839" from-port="1" to-layer="840" to-port="4"/>
		<edge from-layer="759" from-port="5" to-layer="841" to-port="0"/>
		<edge from-layer="840" from-port="5" to-layer="841" to-port="1"/>
		<edge from-layer="841" from-port="2" to-layer="843" to-port="0"/>
		<edge from-layer="842" from-port="1" to-layer="843" to-port="1"/>
		<edge from-layer="843" from-port="2" to-layer="844" to-port="0"/>
		<edge from-layer="844" from-port="1" to-layer="849" to-port="0"/>
		<edge from-layer="845" from-port="1" to-layer="849" to-port="1"/>
		<edge from-layer="846" from-port="1" to-layer="849" to-port="2"/>
		<edge from-layer="847" from-port="1" to-layer="849" to-port="3"/>
		<edge from-layer="848" from-port="1" to-layer="849" to-port="4"/>
		<edge from-layer="850" from-port="1" to-layer="855" to-port="0"/>
		<edge from-layer="851" from-port="1" to-layer="855" to-port="1"/>
		<edge from-layer="852" from-port="1" to-layer="855" to-port="2"/>
		<edge from-layer="853" from-port="1" to-layer="855" to-port="3"/>
		<edge from-layer="854" from-port="1" to-layer="855" to-port="4"/>
		<edge from-layer="759" from-port="5" to-layer="856" to-port="0"/>
		<edge from-layer="855" from-port="5" to-layer="856" to-port="1"/>
		<edge from-layer="856" from-port="2" to-layer="858" to-port="0"/>
		<edge from-layer="857" from-port="1" to-layer="858" to-port="1"/>
		<edge from-layer="858" from-port="2" to-layer="859" to-port="0"/>
		<edge from-layer="859" from-port="1" to-layer="864" to-port="0"/>
		<edge from-layer="860" from-port="1" to-layer="864" to-port="1"/>
		<edge from-layer="861" from-port="1" to-layer="864" to-port="2"/>
		<edge from-layer="862" from-port="1" to-layer="864" to-port="3"/>
		<edge from-layer="863" from-port="1" to-layer="864" to-port="4"/>
		<edge from-layer="865" from-port="1" to-layer="870" to-port="0"/>
		<edge from-layer="866" from-port="1" to-layer="870" to-port="1"/>
		<edge from-layer="867" from-port="1" to-layer="870" to-port="2"/>
		<edge from-layer="868" from-port="1" to-layer="870" to-port="3"/>
		<edge from-layer="869" from-port="1" to-layer="870" to-port="4"/>
		<edge from-layer="759" from-port="5" to-layer="871" to-port="0"/>
		<edge from-layer="870" from-port="5" to-layer="871" to-port="1"/>
		<edge from-layer="871" from-port="2" to-layer="873" to-port="0"/>
		<edge from-layer="872" from-port="1" to-layer="873" to-port="1"/>
		<edge from-layer="873" from-port="2" to-layer="874" to-port="0"/>
		<edge from-layer="874" from-port="1" to-layer="879" to-port="0"/>
		<edge from-layer="875" from-port="1" to-layer="879" to-port="1"/>
		<edge from-layer="876" from-port="1" to-layer="879" to-port="2"/>
		<edge from-layer="877" from-port="1" to-layer="879" to-port="3"/>
		<edge from-layer="878" from-port="1" to-layer="879" to-port="4"/>
		<edge from-layer="880" from-port="1" to-layer="885" to-port="0"/>
		<edge from-layer="881" from-port="1" to-layer="885" to-port="1"/>
		<edge from-layer="882" from-port="1" to-layer="885" to-port="2"/>
		<edge from-layer="883" from-port="1" to-layer="885" to-port="3"/>
		<edge from-layer="884" from-port="1" to-layer="885" to-port="4"/>
		<edge from-layer="759" from-port="5" to-layer="886" to-port="0"/>
		<edge from-layer="885" from-port="5" to-layer="886" to-port="1"/>
		<edge from-layer="886" from-port="2" to-layer="888" to-port="0"/>
		<edge from-layer="887" from-port="1" to-layer="888" to-port="1"/>
		<edge from-layer="888" from-port="2" to-layer="889" to-port="0"/>
		<edge from-layer="889" from-port="1" to-layer="894" to-port="0"/>
		<edge from-layer="890" from-port="1" to-layer="894" to-port="1"/>
		<edge from-layer="891" from-port="1" to-layer="894" to-port="2"/>
		<edge from-layer="892" from-port="1" to-layer="894" to-port="3"/>
		<edge from-layer="893" from-port="1" to-layer="894" to-port="4"/>
		<edge from-layer="895" from-port="1" to-layer="900" to-port="0"/>
		<edge from-layer="896" from-port="1" to-layer="900" to-port="1"/>
		<edge from-layer="897" from-port="1" to-layer="900" to-port="2"/>
		<edge from-layer="898" from-port="1" to-layer="900" to-port="3"/>
		<edge from-layer="899" from-port="1" to-layer="900" to-port="4"/>
		<edge from-layer="759" from-port="5" to-layer="901" to-port="0"/>
		<edge from-layer="900" from-port="5" to-layer="901" to-port="1"/>
		<edge from-layer="901" from-port="2" to-layer="903" to-port="0"/>
		<edge from-layer="902" from-port="1" to-layer="903" to-port="1"/>
		<edge from-layer="903" from-port="2" to-layer="904" to-port="0"/>
		<edge from-layer="904" from-port="1" to-layer="909" to-port="0"/>
		<edge from-layer="905" from-port="1" to-layer="909" to-port="1"/>
		<edge from-layer="906" from-port="1" to-layer="909" to-port="2"/>
		<edge from-layer="907" from-port="1" to-layer="909" to-port="3"/>
		<edge from-layer="908" from-port="1" to-layer="909" to-port="4"/>
		<edge from-layer="910" from-port="1" to-layer="915" to-port="0"/>
		<edge from-layer="911" from-port="1" to-layer="915" to-port="1"/>
		<edge from-layer="912" from-port="1" to-layer="915" to-port="2"/>
		<edge from-layer="913" from-port="1" to-layer="915" to-port="3"/>
		<edge from-layer="914" from-port="1" to-layer="915" to-port="4"/>
		<edge from-layer="759" from-port="5" to-layer="916" to-port="0"/>
		<edge from-layer="915" from-port="5" to-layer="916" to-port="1"/>
		<edge from-layer="916" from-port="2" to-layer="918" to-port="0"/>
		<edge from-layer="917" from-port="1" to-layer="918" to-port="1"/>
		<edge from-layer="918" from-port="2" to-layer="919" to-port="0"/>
		<edge from-layer="919" from-port="1" to-layer="924" to-port="0"/>
		<edge from-layer="920" from-port="1" to-layer="924" to-port="1"/>
		<edge from-layer="921" from-port="1" to-layer="924" to-port="2"/>
		<edge from-layer="922" from-port="1" to-layer="924" to-port="3"/>
		<edge from-layer="923" from-port="1" to-layer="924" to-port="4"/>
		<edge from-layer="925" from-port="1" to-layer="930" to-port="0"/>
		<edge from-layer="926" from-port="1" to-layer="930" to-port="1"/>
		<edge from-layer="927" from-port="1" to-layer="930" to-port="2"/>
		<edge from-layer="928" from-port="1" to-layer="930" to-port="3"/>
		<edge from-layer="929" from-port="1" to-layer="930" to-port="4"/>
		<edge from-layer="759" from-port="5" to-layer="931" to-port="0"/>
		<edge from-layer="930" from-port="5" to-layer="931" to-port="1"/>
		<edge from-layer="931" from-port="2" to-layer="933" to-port="0"/>
		<edge from-layer="932" from-port="1" to-layer="933" to-port="1"/>
		<edge from-layer="933" from-port="2" to-layer="934" to-port="0"/>
		<edge from-layer="934" from-port="1" to-layer="939" to-port="0"/>
		<edge from-layer="935" from-port="1" to-layer="939" to-port="1"/>
		<edge from-layer="936" from-port="1" to-layer="939" to-port="2"/>
		<edge from-layer="937" from-port="1" to-layer="939" to-port="3"/>
		<edge from-layer="938" from-port="1" to-layer="939" to-port="4"/>
		<edge from-layer="940" from-port="1" to-layer="945" to-port="0"/>
		<edge from-layer="941" from-port="1" to-layer="945" to-port="1"/>
		<edge from-layer="942" from-port="1" to-layer="945" to-port="2"/>
		<edge from-layer="943" from-port="1" to-layer="945" to-port="3"/>
		<edge from-layer="944" from-port="1" to-layer="945" to-port="4"/>
		<edge from-layer="759" from-port="5" to-layer="946" to-port="0"/>
		<edge from-layer="945" from-port="5" to-layer="946" to-port="1"/>
		<edge from-layer="946" from-port="2" to-layer="948" to-port="0"/>
		<edge from-layer="947" from-port="1" to-layer="948" to-port="1"/>
		<edge from-layer="948" from-port="2" to-layer="949" to-port="0"/>
		<edge from-layer="949" from-port="1" to-layer="954" to-port="0"/>
		<edge from-layer="950" from-port="1" to-layer="954" to-port="1"/>
		<edge from-layer="951" from-port="1" to-layer="954" to-port="2"/>
		<edge from-layer="952" from-port="1" to-layer="954" to-port="3"/>
		<edge from-layer="953" from-port="1" to-layer="954" to-port="4"/>
		<edge from-layer="955" from-port="1" to-layer="960" to-port="0"/>
		<edge from-layer="956" from-port="1" to-layer="960" to-port="1"/>
		<edge from-layer="957" from-port="1" to-layer="960" to-port="2"/>
		<edge from-layer="958" from-port="1" to-layer="960" to-port="3"/>
		<edge from-layer="959" from-port="1" to-layer="960" to-port="4"/>
		<edge from-layer="759" from-port="5" to-layer="961" to-port="0"/>
		<edge from-layer="960" from-port="5" to-layer="961" to-port="1"/>
		<edge from-layer="961" from-port="2" to-layer="963" to-port="0"/>
		<edge from-layer="962" from-port="1" to-layer="963" to-port="1"/>
		<edge from-layer="963" from-port="2" to-layer="964" to-port="0"/>
		<edge from-layer="964" from-port="1" to-layer="969" to-port="0"/>
		<edge from-layer="965" from-port="1" to-layer="969" to-port="1"/>
		<edge from-layer="966" from-port="1" to-layer="969" to-port="2"/>
		<edge from-layer="967" from-port="1" to-layer="969" to-port="3"/>
		<edge from-layer="968" from-port="1" to-layer="969" to-port="4"/>
		<edge from-layer="970" from-port="1" to-layer="975" to-port="0"/>
		<edge from-layer="971" from-port="1" to-layer="975" to-port="1"/>
		<edge from-layer="972" from-port="1" to-layer="975" to-port="2"/>
		<edge from-layer="973" from-port="1" to-layer="975" to-port="3"/>
		<edge from-layer="974" from-port="1" to-layer="975" to-port="4"/>
		<edge from-layer="759" from-port="5" to-layer="976" to-port="0"/>
		<edge from-layer="975" from-port="5" to-layer="976" to-port="1"/>
		<edge from-layer="976" from-port="2" to-layer="978" to-port="0"/>
		<edge from-layer="977" from-port="1" to-layer="978" to-port="1"/>
		<edge from-layer="978" from-port="2" to-layer="979" to-port="0"/>
		<edge from-layer="979" from-port="1" to-layer="984" to-port="0"/>
		<edge from-layer="980" from-port="1" to-layer="984" to-port="1"/>
		<edge from-layer="981" from-port="1" to-layer="984" to-port="2"/>
		<edge from-layer="982" from-port="1" to-layer="984" to-port="3"/>
		<edge from-layer="983" from-port="1" to-layer="984" to-port="4"/>
		<edge from-layer="985" from-port="1" to-layer="990" to-port="0"/>
		<edge from-layer="986" from-port="1" to-layer="990" to-port="1"/>
		<edge from-layer="987" from-port="1" to-layer="990" to-port="2"/>
		<edge from-layer="988" from-port="1" to-layer="990" to-port="3"/>
		<edge from-layer="989" from-port="1" to-layer="990" to-port="4"/>
		<edge from-layer="759" from-port="5" to-layer="991" to-port="0"/>
		<edge from-layer="990" from-port="5" to-layer="991" to-port="1"/>
		<edge from-layer="991" from-port="2" to-layer="993" to-port="0"/>
		<edge from-layer="992" from-port="1" to-layer="993" to-port="1"/>
		<edge from-layer="993" from-port="2" to-layer="994" to-port="0"/>
		<edge from-layer="994" from-port="1" to-layer="999" to-port="0"/>
		<edge from-layer="995" from-port="1" to-layer="999" to-port="1"/>
		<edge from-layer="996" from-port="1" to-layer="999" to-port="2"/>
		<edge from-layer="997" from-port="1" to-layer="999" to-port="3"/>
		<edge from-layer="998" from-port="1" to-layer="999" to-port="4"/>
		<edge from-layer="1000" from-port="1" to-layer="1005" to-port="0"/>
		<edge from-layer="1001" from-port="1" to-layer="1005" to-port="1"/>
		<edge from-layer="1002" from-port="1" to-layer="1005" to-port="2"/>
		<edge from-layer="1003" from-port="1" to-layer="1005" to-port="3"/>
		<edge from-layer="1004" from-port="1" to-layer="1005" to-port="4"/>
		<edge from-layer="759" from-port="5" to-layer="1006" to-port="0"/>
		<edge from-layer="1005" from-port="5" to-layer="1006" to-port="1"/>
		<edge from-layer="1006" from-port="2" to-layer="1008" to-port="0"/>
		<edge from-layer="1007" from-port="1" to-layer="1008" to-port="1"/>
		<edge from-layer="1008" from-port="2" to-layer="1009" to-port="0"/>
		<edge from-layer="1009" from-port="1" to-layer="1014" to-port="0"/>
		<edge from-layer="1010" from-port="1" to-layer="1014" to-port="1"/>
		<edge from-layer="1011" from-port="1" to-layer="1014" to-port="2"/>
		<edge from-layer="1012" from-port="1" to-layer="1014" to-port="3"/>
		<edge from-layer="1013" from-port="1" to-layer="1014" to-port="4"/>
		<edge from-layer="1015" from-port="1" to-layer="1020" to-port="0"/>
		<edge from-layer="1016" from-port="1" to-layer="1020" to-port="1"/>
		<edge from-layer="1017" from-port="1" to-layer="1020" to-port="2"/>
		<edge from-layer="1018" from-port="1" to-layer="1020" to-port="3"/>
		<edge from-layer="1019" from-port="1" to-layer="1020" to-port="4"/>
		<edge from-layer="759" from-port="5" to-layer="1021" to-port="0"/>
		<edge from-layer="1020" from-port="5" to-layer="1021" to-port="1"/>
		<edge from-layer="1021" from-port="2" to-layer="1023" to-port="0"/>
		<edge from-layer="1022" from-port="1" to-layer="1023" to-port="1"/>
		<edge from-layer="1023" from-port="2" to-layer="1024" to-port="0"/>
		<edge from-layer="1024" from-port="1" to-layer="1029" to-port="0"/>
		<edge from-layer="1025" from-port="1" to-layer="1029" to-port="1"/>
		<edge from-layer="1026" from-port="1" to-layer="1029" to-port="2"/>
		<edge from-layer="1027" from-port="1" to-layer="1029" to-port="3"/>
		<edge from-layer="1028" from-port="1" to-layer="1029" to-port="4"/>
		<edge from-layer="1030" from-port="1" to-layer="1035" to-port="0"/>
		<edge from-layer="1031" from-port="1" to-layer="1035" to-port="1"/>
		<edge from-layer="1032" from-port="1" to-layer="1035" to-port="2"/>
		<edge from-layer="1033" from-port="1" to-layer="1035" to-port="3"/>
		<edge from-layer="1034" from-port="1" to-layer="1035" to-port="4"/>
		<edge from-layer="759" from-port="5" to-layer="1036" to-port="0"/>
		<edge from-layer="1035" from-port="5" to-layer="1036" to-port="1"/>
		<edge from-layer="1036" from-port="2" to-layer="1038" to-port="0"/>
		<edge from-layer="1037" from-port="1" to-layer="1038" to-port="1"/>
		<edge from-layer="1038" from-port="2" to-layer="1039" to-port="0"/>
		<edge from-layer="1039" from-port="1" to-layer="1044" to-port="0"/>
		<edge from-layer="1040" from-port="1" to-layer="1044" to-port="1"/>
		<edge from-layer="1041" from-port="1" to-layer="1044" to-port="2"/>
		<edge from-layer="1042" from-port="1" to-layer="1044" to-port="3"/>
		<edge from-layer="1043" from-port="1" to-layer="1044" to-port="4"/>
		<edge from-layer="1045" from-port="1" to-layer="1050" to-port="0"/>
		<edge from-layer="1046" from-port="1" to-layer="1050" to-port="1"/>
		<edge from-layer="1047" from-port="1" to-layer="1050" to-port="2"/>
		<edge from-layer="1048" from-port="1" to-layer="1050" to-port="3"/>
		<edge from-layer="1049" from-port="1" to-layer="1050" to-port="4"/>
		<edge from-layer="759" from-port="5" to-layer="1051" to-port="0"/>
		<edge from-layer="1050" from-port="5" to-layer="1051" to-port="1"/>
		<edge from-layer="1051" from-port="2" to-layer="1053" to-port="0"/>
		<edge from-layer="1052" from-port="1" to-layer="1053" to-port="1"/>
		<edge from-layer="1053" from-port="2" to-layer="1054" to-port="0"/>
		<edge from-layer="1054" from-port="1" to-layer="1059" to-port="0"/>
		<edge from-layer="1055" from-port="1" to-layer="1059" to-port="1"/>
		<edge from-layer="1056" from-port="1" to-layer="1059" to-port="2"/>
		<edge from-layer="1057" from-port="1" to-layer="1059" to-port="3"/>
		<edge from-layer="1058" from-port="1" to-layer="1059" to-port="4"/>
		<edge from-layer="1060" from-port="1" to-layer="1065" to-port="0"/>
		<edge from-layer="1061" from-port="1" to-layer="1065" to-port="1"/>
		<edge from-layer="1062" from-port="1" to-layer="1065" to-port="2"/>
		<edge from-layer="1063" from-port="1" to-layer="1065" to-port="3"/>
		<edge from-layer="1064" from-port="1" to-layer="1065" to-port="4"/>
		<edge from-layer="759" from-port="5" to-layer="1066" to-port="0"/>
		<edge from-layer="1065" from-port="5" to-layer="1066" to-port="1"/>
		<edge from-layer="1066" from-port="2" to-layer="1068" to-port="0"/>
		<edge from-layer="1067" from-port="1" to-layer="1068" to-port="1"/>
		<edge from-layer="1068" from-port="2" to-layer="1069" to-port="0"/>
		<edge from-layer="1069" from-port="1" to-layer="1074" to-port="0"/>
		<edge from-layer="1070" from-port="1" to-layer="1074" to-port="1"/>
		<edge from-layer="1071" from-port="1" to-layer="1074" to-port="2"/>
		<edge from-layer="1072" from-port="1" to-layer="1074" to-port="3"/>
		<edge from-layer="1073" from-port="1" to-layer="1074" to-port="4"/>
		<edge from-layer="1075" from-port="1" to-layer="1080" to-port="0"/>
		<edge from-layer="1076" from-port="1" to-layer="1080" to-port="1"/>
		<edge from-layer="1077" from-port="1" to-layer="1080" to-port="2"/>
		<edge from-layer="1078" from-port="1" to-layer="1080" to-port="3"/>
		<edge from-layer="1079" from-port="1" to-layer="1080" to-port="4"/>
		<edge from-layer="759" from-port="5" to-layer="1081" to-port="0"/>
		<edge from-layer="1080" from-port="5" to-layer="1081" to-port="1"/>
		<edge from-layer="1081" from-port="2" to-layer="1083" to-port="0"/>
		<edge from-layer="1082" from-port="1" to-layer="1083" to-port="1"/>
		<edge from-layer="1083" from-port="2" to-layer="1084" to-port="0"/>
		<edge from-layer="1084" from-port="1" to-layer="1089" to-port="0"/>
		<edge from-layer="1085" from-port="1" to-layer="1089" to-port="1"/>
		<edge from-layer="1086" from-port="1" to-layer="1089" to-port="2"/>
		<edge from-layer="1087" from-port="1" to-layer="1089" to-port="3"/>
		<edge from-layer="1088" from-port="1" to-layer="1089" to-port="4"/>
		<edge from-layer="1090" from-port="1" to-layer="1095" to-port="0"/>
		<edge from-layer="1091" from-port="1" to-layer="1095" to-port="1"/>
		<edge from-layer="1092" from-port="1" to-layer="1095" to-port="2"/>
		<edge from-layer="1093" from-port="1" to-layer="1095" to-port="3"/>
		<edge from-layer="1094" from-port="1" to-layer="1095" to-port="4"/>
		<edge from-layer="759" from-port="5" to-layer="1096" to-port="0"/>
		<edge from-layer="1095" from-port="5" to-layer="1096" to-port="1"/>
		<edge from-layer="1096" from-port="2" to-layer="1098" to-port="0"/>
		<edge from-layer="1097" from-port="1" to-layer="1098" to-port="1"/>
		<edge from-layer="1098" from-port="2" to-layer="1099" to-port="0"/>
		<edge from-layer="1099" from-port="1" to-layer="1104" to-port="0"/>
		<edge from-layer="1100" from-port="1" to-layer="1104" to-port="1"/>
		<edge from-layer="1101" from-port="1" to-layer="1104" to-port="2"/>
		<edge from-layer="1102" from-port="1" to-layer="1104" to-port="3"/>
		<edge from-layer="1103" from-port="1" to-layer="1104" to-port="4"/>
		<edge from-layer="1105" from-port="1" to-layer="1110" to-port="0"/>
		<edge from-layer="1106" from-port="1" to-layer="1110" to-port="1"/>
		<edge from-layer="1107" from-port="1" to-layer="1110" to-port="2"/>
		<edge from-layer="1108" from-port="1" to-layer="1110" to-port="3"/>
		<edge from-layer="1109" from-port="1" to-layer="1110" to-port="4"/>
		<edge from-layer="759" from-port="5" to-layer="1111" to-port="0"/>
		<edge from-layer="1110" from-port="5" to-layer="1111" to-port="1"/>
		<edge from-layer="1111" from-port="2" to-layer="1113" to-port="0"/>
		<edge from-layer="1112" from-port="1" to-layer="1113" to-port="1"/>
		<edge from-layer="1113" from-port="2" to-layer="1114" to-port="0"/>
		<edge from-layer="1114" from-port="1" to-layer="1119" to-port="0"/>
		<edge from-layer="1115" from-port="1" to-layer="1119" to-port="1"/>
		<edge from-layer="1116" from-port="1" to-layer="1119" to-port="2"/>
		<edge from-layer="1117" from-port="1" to-layer="1119" to-port="3"/>
		<edge from-layer="1118" from-port="1" to-layer="1119" to-port="4"/>
		<edge from-layer="1120" from-port="1" to-layer="1125" to-port="0"/>
		<edge from-layer="1121" from-port="1" to-layer="1125" to-port="1"/>
		<edge from-layer="1122" from-port="1" to-layer="1125" to-port="2"/>
		<edge from-layer="1123" from-port="1" to-layer="1125" to-port="3"/>
		<edge from-layer="1124" from-port="1" to-layer="1125" to-port="4"/>
		<edge from-layer="759" from-port="5" to-layer="1126" to-port="0"/>
		<edge from-layer="1125" from-port="5" to-layer="1126" to-port="1"/>
		<edge from-layer="1126" from-port="2" to-layer="1128" to-port="0"/>
		<edge from-layer="1127" from-port="1" to-layer="1128" to-port="1"/>
		<edge from-layer="1128" from-port="2" to-layer="1129" to-port="0"/>
		<edge from-layer="1129" from-port="1" to-layer="1134" to-port="0"/>
		<edge from-layer="1130" from-port="1" to-layer="1134" to-port="1"/>
		<edge from-layer="1131" from-port="1" to-layer="1134" to-port="2"/>
		<edge from-layer="1132" from-port="1" to-layer="1134" to-port="3"/>
		<edge from-layer="1133" from-port="1" to-layer="1134" to-port="4"/>
		<edge from-layer="1135" from-port="1" to-layer="1140" to-port="0"/>
		<edge from-layer="1136" from-port="1" to-layer="1140" to-port="1"/>
		<edge from-layer="1137" from-port="1" to-layer="1140" to-port="2"/>
		<edge from-layer="1138" from-port="1" to-layer="1140" to-port="3"/>
		<edge from-layer="1139" from-port="1" to-layer="1140" to-port="4"/>
		<edge from-layer="759" from-port="5" to-layer="1141" to-port="0"/>
		<edge from-layer="1140" from-port="5" to-layer="1141" to-port="1"/>
		<edge from-layer="1141" from-port="2" to-layer="1143" to-port="0"/>
		<edge from-layer="1142" from-port="1" to-layer="1143" to-port="1"/>
		<edge from-layer="1143" from-port="2" to-layer="1144" to-port="0"/>
		<edge from-layer="1144" from-port="1" to-layer="1149" to-port="0"/>
		<edge from-layer="1145" from-port="1" to-layer="1149" to-port="1"/>
		<edge from-layer="1146" from-port="1" to-layer="1149" to-port="2"/>
		<edge from-layer="1147" from-port="1" to-layer="1149" to-port="3"/>
		<edge from-layer="1148" from-port="1" to-layer="1149" to-port="4"/>
		<edge from-layer="1150" from-port="1" to-layer="1155" to-port="0"/>
		<edge from-layer="1151" from-port="1" to-layer="1155" to-port="1"/>
		<edge from-layer="1152" from-port="1" to-layer="1155" to-port="2"/>
		<edge from-layer="1153" from-port="1" to-layer="1155" to-port="3"/>
		<edge from-layer="1154" from-port="1" to-layer="1155" to-port="4"/>
		<edge from-layer="759" from-port="5" to-layer="1156" to-port="0"/>
		<edge from-layer="1155" from-port="5" to-layer="1156" to-port="1"/>
		<edge from-layer="1156" from-port="2" to-layer="1158" to-port="0"/>
		<edge from-layer="1157" from-port="1" to-layer="1158" to-port="1"/>
		<edge from-layer="1158" from-port="2" to-layer="1159" to-port="0"/>
		<edge from-layer="1159" from-port="1" to-layer="1164" to-port="0"/>
		<edge from-layer="1160" from-port="1" to-layer="1164" to-port="1"/>
		<edge from-layer="1161" from-port="1" to-layer="1164" to-port="2"/>
		<edge from-layer="1162" from-port="1" to-layer="1164" to-port="3"/>
		<edge from-layer="1163" from-port="1" to-layer="1164" to-port="4"/>
		<edge from-layer="1165" from-port="1" to-layer="1170" to-port="0"/>
		<edge from-layer="1166" from-port="1" to-layer="1170" to-port="1"/>
		<edge from-layer="1167" from-port="1" to-layer="1170" to-port="2"/>
		<edge from-layer="1168" from-port="1" to-layer="1170" to-port="3"/>
		<edge from-layer="1169" from-port="1" to-layer="1170" to-port="4"/>
		<edge from-layer="759" from-port="5" to-layer="1171" to-port="0"/>
		<edge from-layer="1170" from-port="5" to-layer="1171" to-port="1"/>
		<edge from-layer="1171" from-port="2" to-layer="1173" to-port="0"/>
		<edge from-layer="1172" from-port="1" to-layer="1173" to-port="1"/>
		<edge from-layer="1173" from-port="2" to-layer="1174" to-port="0"/>
		<edge from-layer="1174" from-port="1" to-layer="1179" to-port="0"/>
		<edge from-layer="1175" from-port="1" to-layer="1179" to-port="1"/>
		<edge from-layer="1176" from-port="1" to-layer="1179" to-port="2"/>
		<edge from-layer="1177" from-port="1" to-layer="1179" to-port="3"/>
		<edge from-layer="1178" from-port="1" to-layer="1179" to-port="4"/>
		<edge from-layer="1180" from-port="1" to-layer="1185" to-port="0"/>
		<edge from-layer="1181" from-port="1" to-layer="1185" to-port="1"/>
		<edge from-layer="1182" from-port="1" to-layer="1185" to-port="2"/>
		<edge from-layer="1183" from-port="1" to-layer="1185" to-port="3"/>
		<edge from-layer="1184" from-port="1" to-layer="1185" to-port="4"/>
		<edge from-layer="759" from-port="5" to-layer="1186" to-port="0"/>
		<edge from-layer="1185" from-port="5" to-layer="1186" to-port="1"/>
		<edge from-layer="1186" from-port="2" to-layer="1188" to-port="0"/>
		<edge from-layer="1187" from-port="1" to-layer="1188" to-port="1"/>
		<edge from-layer="1188" from-port="2" to-layer="1189" to-port="0"/>
		<edge from-layer="1189" from-port="1" to-layer="1194" to-port="0"/>
		<edge from-layer="1190" from-port="1" to-layer="1194" to-port="1"/>
		<edge from-layer="1191" from-port="1" to-layer="1194" to-port="2"/>
		<edge from-layer="1192" from-port="1" to-layer="1194" to-port="3"/>
		<edge from-layer="1193" from-port="1" to-layer="1194" to-port="4"/>
		<edge from-layer="1195" from-port="1" to-layer="1200" to-port="0"/>
		<edge from-layer="1196" from-port="1" to-layer="1200" to-port="1"/>
		<edge from-layer="1197" from-port="1" to-layer="1200" to-port="2"/>
		<edge from-layer="1198" from-port="1" to-layer="1200" to-port="3"/>
		<edge from-layer="1199" from-port="1" to-layer="1200" to-port="4"/>
		<edge from-layer="759" from-port="5" to-layer="1201" to-port="0"/>
		<edge from-layer="1200" from-port="5" to-layer="1201" to-port="1"/>
		<edge from-layer="1201" from-port="2" to-layer="1203" to-port="0"/>
		<edge from-layer="1202" from-port="1" to-layer="1203" to-port="1"/>
		<edge from-layer="1203" from-port="2" to-layer="1204" to-port="0"/>
		<edge from-layer="1204" from-port="1" to-layer="1209" to-port="0"/>
		<edge from-layer="1205" from-port="1" to-layer="1209" to-port="1"/>
		<edge from-layer="1206" from-port="1" to-layer="1209" to-port="2"/>
		<edge from-layer="1207" from-port="1" to-layer="1209" to-port="3"/>
		<edge from-layer="1208" from-port="1" to-layer="1209" to-port="4"/>
		<edge from-layer="1210" from-port="1" to-layer="1215" to-port="0"/>
		<edge from-layer="1211" from-port="1" to-layer="1215" to-port="1"/>
		<edge from-layer="1212" from-port="1" to-layer="1215" to-port="2"/>
		<edge from-layer="1213" from-port="1" to-layer="1215" to-port="3"/>
		<edge from-layer="1214" from-port="1" to-layer="1215" to-port="4"/>
		<edge from-layer="759" from-port="5" to-layer="1216" to-port="0"/>
		<edge from-layer="1215" from-port="5" to-layer="1216" to-port="1"/>
		<edge from-layer="1216" from-port="2" to-layer="1218" to-port="0"/>
		<edge from-layer="1217" from-port="1" to-layer="1218" to-port="1"/>
		<edge from-layer="1218" from-port="2" to-layer="1219" to-port="0"/>
		<edge from-layer="1219" from-port="1" to-layer="1224" to-port="0"/>
		<edge from-layer="1220" from-port="1" to-layer="1224" to-port="1"/>
		<edge from-layer="1221" from-port="1" to-layer="1224" to-port="2"/>
		<edge from-layer="1222" from-port="1" to-layer="1224" to-port="3"/>
		<edge from-layer="1223" from-port="1" to-layer="1224" to-port="4"/>
		<edge from-layer="1225" from-port="1" to-layer="1230" to-port="0"/>
		<edge from-layer="1226" from-port="1" to-layer="1230" to-port="1"/>
		<edge from-layer="1227" from-port="1" to-layer="1230" to-port="2"/>
		<edge from-layer="1228" from-port="1" to-layer="1230" to-port="3"/>
		<edge from-layer="1229" from-port="1" to-layer="1230" to-port="4"/>
		<edge from-layer="759" from-port="5" to-layer="1231" to-port="0"/>
		<edge from-layer="1230" from-port="5" to-layer="1231" to-port="1"/>
		<edge from-layer="1231" from-port="2" to-layer="1233" to-port="0"/>
		<edge from-layer="1232" from-port="1" to-layer="1233" to-port="1"/>
		<edge from-layer="1233" from-port="2" to-layer="1234" to-port="0"/>
		<edge from-layer="1234" from-port="1" to-layer="1239" to-port="0"/>
		<edge from-layer="1235" from-port="1" to-layer="1239" to-port="1"/>
		<edge from-layer="1236" from-port="1" to-layer="1239" to-port="2"/>
		<edge from-layer="1237" from-port="1" to-layer="1239" to-port="3"/>
		<edge from-layer="1238" from-port="1" to-layer="1239" to-port="4"/>
		<edge from-layer="1240" from-port="1" to-layer="1245" to-port="0"/>
		<edge from-layer="1241" from-port="1" to-layer="1245" to-port="1"/>
		<edge from-layer="1242" from-port="1" to-layer="1245" to-port="2"/>
		<edge from-layer="1243" from-port="1" to-layer="1245" to-port="3"/>
		<edge from-layer="1244" from-port="1" to-layer="1245" to-port="4"/>
		<edge from-layer="759" from-port="5" to-layer="1246" to-port="0"/>
		<edge from-layer="1245" from-port="5" to-layer="1246" to-port="1"/>
		<edge from-layer="1246" from-port="2" to-layer="1248" to-port="0"/>
		<edge from-layer="1247" from-port="1" to-layer="1248" to-port="1"/>
		<edge from-layer="1248" from-port="2" to-layer="1249" to-port="0"/>
		<edge from-layer="1249" from-port="1" to-layer="1254" to-port="0"/>
		<edge from-layer="1250" from-port="1" to-layer="1254" to-port="1"/>
		<edge from-layer="1251" from-port="1" to-layer="1254" to-port="2"/>
		<edge from-layer="1252" from-port="1" to-layer="1254" to-port="3"/>
		<edge from-layer="1253" from-port="1" to-layer="1254" to-port="4"/>
		<edge from-layer="1255" from-port="1" to-layer="1260" to-port="0"/>
		<edge from-layer="1256" from-port="1" to-layer="1260" to-port="1"/>
		<edge from-layer="1257" from-port="1" to-layer="1260" to-port="2"/>
		<edge from-layer="1258" from-port="1" to-layer="1260" to-port="3"/>
		<edge from-layer="1259" from-port="1" to-layer="1260" to-port="4"/>
		<edge from-layer="759" from-port="5" to-layer="1261" to-port="0"/>
		<edge from-layer="1260" from-port="5" to-layer="1261" to-port="1"/>
		<edge from-layer="1261" from-port="2" to-layer="1263" to-port="0"/>
		<edge from-layer="1262" from-port="1" to-layer="1263" to-port="1"/>
		<edge from-layer="1263" from-port="2" to-layer="1264" to-port="0"/>
		<edge from-layer="1264" from-port="1" to-layer="1269" to-port="0"/>
		<edge from-layer="1265" from-port="1" to-layer="1269" to-port="1"/>
		<edge from-layer="1266" from-port="1" to-layer="1269" to-port="2"/>
		<edge from-layer="1267" from-port="1" to-layer="1269" to-port="3"/>
		<edge from-layer="1268" from-port="1" to-layer="1269" to-port="4"/>
		<edge from-layer="144" from-port="5" to-layer="1270" to-port="0"/>
		<edge from-layer="159" from-port="5" to-layer="1270" to-port="1"/>
		<edge from-layer="174" from-port="5" to-layer="1270" to-port="2"/>
		<edge from-layer="189" from-port="5" to-layer="1270" to-port="3"/>
		<edge from-layer="219" from-port="5" to-layer="1270" to-port="4"/>
		<edge from-layer="234" from-port="5" to-layer="1270" to-port="5"/>
		<edge from-layer="249" from-port="5" to-layer="1270" to-port="6"/>
		<edge from-layer="264" from-port="5" to-layer="1270" to-port="7"/>
		<edge from-layer="294" from-port="5" to-layer="1270" to-port="8"/>
		<edge from-layer="309" from-port="5" to-layer="1270" to-port="9"/>
		<edge from-layer="324" from-port="5" to-layer="1270" to-port="10"/>
		<edge from-layer="339" from-port="5" to-layer="1270" to-port="11"/>
		<edge from-layer="354" from-port="5" to-layer="1270" to-port="12"/>
		<edge from-layer="369" from-port="5" to-layer="1270" to-port="13"/>
		<edge from-layer="384" from-port="5" to-layer="1270" to-port="14"/>
		<edge from-layer="399" from-port="5" to-layer="1270" to-port="15"/>
		<edge from-layer="429" from-port="5" to-layer="1270" to-port="16"/>
		<edge from-layer="444" from-port="5" to-layer="1270" to-port="17"/>
		<edge from-layer="459" from-port="5" to-layer="1270" to-port="18"/>
		<edge from-layer="474" from-port="5" to-layer="1270" to-port="19"/>
		<edge from-layer="489" from-port="5" to-layer="1270" to-port="20"/>
		<edge from-layer="504" from-port="5" to-layer="1270" to-port="21"/>
		<edge from-layer="519" from-port="5" to-layer="1270" to-port="22"/>
		<edge from-layer="534" from-port="5" to-layer="1270" to-port="23"/>
		<edge from-layer="564" from-port="5" to-layer="1270" to-port="24"/>
		<edge from-layer="579" from-port="5" to-layer="1270" to-port="25"/>
		<edge from-layer="594" from-port="5" to-layer="1270" to-port="26"/>
		<edge from-layer="609" from-port="5" to-layer="1270" to-port="27"/>
		<edge from-layer="624" from-port="5" to-layer="1270" to-port="28"/>
		<edge from-layer="639" from-port="5" to-layer="1270" to-port="29"/>
		<edge from-layer="669" from-port="5" to-layer="1270" to-port="30"/>
		<edge from-layer="684" from-port="5" to-layer="1270" to-port="31"/>
		<edge from-layer="699" from-port="5" to-layer="1270" to-port="32"/>
		<edge from-layer="714" from-port="5" to-layer="1270" to-port="33"/>
		<edge from-layer="729" from-port="5" to-layer="1270" to-port="34"/>
		<edge from-layer="744" from-port="5" to-layer="1270" to-port="35"/>
		<edge from-layer="774" from-port="5" to-layer="1270" to-port="36"/>
		<edge from-layer="789" from-port="5" to-layer="1270" to-port="37"/>
		<edge from-layer="804" from-port="5" to-layer="1270" to-port="38"/>
		<edge from-layer="819" from-port="5" to-layer="1270" to-port="39"/>
		<edge from-layer="834" from-port="5" to-layer="1270" to-port="40"/>
		<edge from-layer="849" from-port="5" to-layer="1270" to-port="41"/>
		<edge from-layer="864" from-port="5" to-layer="1270" to-port="42"/>
		<edge from-layer="879" from-port="5" to-layer="1270" to-port="43"/>
		<edge from-layer="894" from-port="5" to-layer="1270" to-port="44"/>
		<edge from-layer="909" from-port="5" to-layer="1270" to-port="45"/>
		<edge from-layer="924" from-port="5" to-layer="1270" to-port="46"/>
		<edge from-layer="939" from-port="5" to-layer="1270" to-port="47"/>
		<edge from-layer="954" from-port="5" to-layer="1270" to-port="48"/>
		<edge from-layer="969" from-port="5" to-layer="1270" to-port="49"/>
		<edge from-layer="984" from-port="5" to-layer="1270" to-port="50"/>
		<edge from-layer="999" from-port="5" to-layer="1270" to-port="51"/>
		<edge from-layer="1014" from-port="5" to-layer="1270" to-port="52"/>
		<edge from-layer="1029" from-port="5" to-layer="1270" to-port="53"/>
		<edge from-layer="1044" from-port="5" to-layer="1270" to-port="54"/>
		<edge from-layer="1059" from-port="5" to-layer="1270" to-port="55"/>
		<edge from-layer="1074" from-port="5" to-layer="1270" to-port="56"/>
		<edge from-layer="1089" from-port="5" to-layer="1270" to-port="57"/>
		<edge from-layer="1104" from-port="5" to-layer="1270" to-port="58"/>
		<edge from-layer="1119" from-port="5" to-layer="1270" to-port="59"/>
		<edge from-layer="1134" from-port="5" to-layer="1270" to-port="60"/>
		<edge from-layer="1149" from-port="5" to-layer="1270" to-port="61"/>
		<edge from-layer="1164" from-port="5" to-layer="1270" to-port="62"/>
		<edge from-layer="1179" from-port="5" to-layer="1270" to-port="63"/>
		<edge from-layer="1194" from-port="5" to-layer="1270" to-port="64"/>
		<edge from-layer="1209" from-port="5" to-layer="1270" to-port="65"/>
		<edge from-layer="1224" from-port="5" to-layer="1270" to-port="66"/>
		<edge from-layer="1239" from-port="5" to-layer="1270" to-port="67"/>
		<edge from-layer="1254" from-port="5" to-layer="1270" to-port="68"/>
		<edge from-layer="1269" from-port="5" to-layer="1270" to-port="69"/>
		<edge from-layer="1271" from-port="1" to-layer="1276" to-port="0"/>
		<edge from-layer="1272" from-port="1" to-layer="1276" to-port="1"/>
		<edge from-layer="1273" from-port="1" to-layer="1276" to-port="2"/>
		<edge from-layer="1274" from-port="1" to-layer="1276" to-port="3"/>
		<edge from-layer="1275" from-port="1" to-layer="1276" to-port="4"/>
		<edge from-layer="1270" from-port="70" to-layer="1277" to-port="0"/>
		<edge from-layer="1276" from-port="5" to-layer="1277" to-port="1"/>
		<edge from-layer="1277" from-port="2" to-layer="1279" to-port="0"/>
		<edge from-layer="1278" from-port="1" to-layer="1279" to-port="1"/>
		<edge from-layer="1279" from-port="2" to-layer="1280" to-port="0"/>
		<edge from-layer="1280" from-port="1" to-layer="1282" to-port="0"/>
		<edge from-layer="1281" from-port="1" to-layer="1282" to-port="1"/>
		<edge from-layer="1282" from-port="2" to-layer="1284" to-port="0"/>
		<edge from-layer="1283" from-port="1" to-layer="1284" to-port="1"/>
		<edge from-layer="1284" from-port="2" to-layer="1289" to-port="0"/>
		<edge from-layer="1285" from-port="1" to-layer="1289" to-port="1"/>
		<edge from-layer="1286" from-port="1" to-layer="1289" to-port="2"/>
		<edge from-layer="1287" from-port="1" to-layer="1289" to-port="3"/>
		<edge from-layer="1288" from-port="1" to-layer="1289" to-port="4"/>
		<edge from-layer="1290" from-port="1" to-layer="1295" to-port="0"/>
		<edge from-layer="1291" from-port="1" to-layer="1295" to-port="1"/>
		<edge from-layer="1292" from-port="1" to-layer="1295" to-port="2"/>
		<edge from-layer="1293" from-port="1" to-layer="1295" to-port="3"/>
		<edge from-layer="1294" from-port="1" to-layer="1295" to-port="4"/>
		<edge from-layer="1289" from-port="5" to-layer="1296" to-port="0"/>
		<edge from-layer="1295" from-port="5" to-layer="1296" to-port="1"/>
		<edge from-layer="1296" from-port="2" to-layer="1298" to-port="0"/>
		<edge from-layer="1297" from-port="1" to-layer="1298" to-port="1"/>
		<edge from-layer="1298" from-port="2" to-layer="1299" to-port="0"/>
		<edge from-layer="1299" from-port="1" to-layer="1304" to-port="0"/>
		<edge from-layer="1300" from-port="1" to-layer="1304" to-port="1"/>
		<edge from-layer="1301" from-port="1" to-layer="1304" to-port="2"/>
		<edge from-layer="1302" from-port="1" to-layer="1304" to-port="3"/>
		<edge from-layer="1303" from-port="1" to-layer="1304" to-port="4"/>
		<edge from-layer="1304" from-port="5" to-layer="1306" to-port="0"/>
		<edge from-layer="1305" from-port="1" to-layer="1306" to-port="1"/>
		<edge from-layer="1306" from-port="2" to-layer="1308" to-port="0"/>
		<edge from-layer="1307" from-port="1" to-layer="1308" to-port="1"/>
		<edge from-layer="1308" from-port="2" to-layer="1313" to-port="0"/>
		<edge from-layer="1309" from-port="1" to-layer="1313" to-port="1"/>
		<edge from-layer="1310" from-port="1" to-layer="1313" to-port="2"/>
		<edge from-layer="1311" from-port="1" to-layer="1313" to-port="3"/>
		<edge from-layer="1312" from-port="1" to-layer="1313" to-port="4"/>
		<edge from-layer="1314" from-port="1" to-layer="1319" to-port="0"/>
		<edge from-layer="1315" from-port="1" to-layer="1319" to-port="1"/>
		<edge from-layer="1316" from-port="1" to-layer="1319" to-port="2"/>
		<edge from-layer="1317" from-port="1" to-layer="1319" to-port="3"/>
		<edge from-layer="1318" from-port="1" to-layer="1319" to-port="4"/>
		<edge from-layer="1313" from-port="5" to-layer="1320" to-port="0"/>
		<edge from-layer="1319" from-port="5" to-layer="1320" to-port="1"/>
		<edge from-layer="1320" from-port="2" to-layer="1322" to-port="0"/>
		<edge from-layer="1321" from-port="1" to-layer="1322" to-port="1"/>
		<edge from-layer="1322" from-port="2" to-layer="1324" to-port="0"/>
		<edge from-layer="1323" from-port="1" to-layer="1324" to-port="1"/>
		<edge from-layer="1324" from-port="2" to-layer="1325" to-port="0"/>
	</edges>
	<meta_data>
		<MO_version value="unknown version"/>
		<cli_parameters>
			<blobs_as_inputs value="True"/>
			<caffe_parser_path value="DIR"/>
			<data_type value="FP32"/>
			<disable_nhwc_to_nchw value="False"/>
			<disable_omitting_optional value="False"/>
			<disable_resnet_optimization value="False"/>
			<enable_concat_optimization value="False"/>
			<enable_flattening_nested_params value="False"/>
			<enable_ssd_gluoncv value="False"/>
			<extensions value="DIR"/>
			<framework value="caffe"/>
			<freeze_placeholder_with_value value="{}"/>
			<generate_deprecated_IR_V2 value="False"/>
			<generate_deprecated_IR_V7 value="False"/>
			<generate_experimental_IR_V10 value="True"/>
			<input value="data"/>
			<input_model value="DIR/facial-landmarks-35-adas-0002.caffemodel"/>
			<input_model_is_text value="False"/>
			<input_proto value="DIR/facial-landmarks-35-adas-0002.prototxt"/>
			<input_shape value="[1,3,60,60]"/>
			<k value="DIR/CustomLayersMapping.xml"/>
			<keep_quantize_ops_in_IR value="True"/>
			<keep_shape_ops value="False"/>
			<legacy_mxnet_model value="False"/>
			<log_level value="ERROR"/>
			<mean_scale_values value="{'data': {'mean': array([120., 110., 104.]), 'scale': array([256.41025641])}}"/>
			<mean_values value="data[120.0,110.0,104.0]"/>
			<model_name value="facial-landmarks-35-adas-0002"/>
			<move_to_preprocess value="False"/>
			<output value="['align_fc3']"/>
			<output_dir value="DIR"/>
			<placeholder_data_types value="{}"/>
			<placeholder_shapes value="{'data': array([ 1,  3, 60, 60])}"/>
			<progress value="False"/>
			<remove_memory value="False"/>
			<remove_output_softmax value="False"/>
			<reverse_input_channels value="False"/>
			<save_params_from_nd value="False"/>
			<scale_values value="data[256.4102564102564]"/>
			<silent value="False"/>
			<stream_output value="False"/>
			<unset unset_cli_parameters="batch, counts, disable_fusing, disable_gfusing, finegrain_fusing, input_checkpoint, input_meta_graph, input_symbol, mean_file, mean_file_offsets, nd_prefix_name, pretrained_model_name, saved_model_dir, saved_model_tags, scale, tensorboard_logdir, tensorflow_custom_layer_libraries, tensorflow_custom_operations_config_update, tensorflow_object_detection_api_pipeline_config, tensorflow_operation_patterns, tensorflow_subgraph_patterns, tensorflow_use_custom_operations_config, transformations_config"/>
		</cli_parameters>
	</meta_data>
</net>
